{"class_name": "Model", "config": {"output_layers": [["dense_2", 0, 0]], "name": "model_2", "input_layers": [["input_1", 0, 0]], "layers": [{"class_name": "InputLayer", "name": "input_1", "config": {"sparse": false, "name": "input_1", "batch_input_shape": [null, null, null, 3], "input_dtype": "float32"}, "inbound_nodes": []}, {"class_name": "Convolution2D", "name": "convolution2d_1", "config": {"dim_ordering": "tf", "activity_regularizer": null, "subsample": [2, 2], "bias": true, "b_constraint": null, "nb_col": 3, "b_regularizer": null, "nb_row": 3, "border_mode": "valid", "W_regularizer": null, "trainable": false, "nb_filter": 32, "W_constraint": null, "activation": "relu", "name": "convolution2d_1", "init": "glorot_uniform"}, "inbound_nodes": [[["input_1", 0, 0]]]}, {"class_name": "BatchNormalization", "name": "batchnormalization_1", "config": {"epsilon": 1e-05, "trainable": false, "mode": 0, "beta_regularizer": null, "momentum": 0.99, "name": "batchnormalization_1", "gamma_regularizer": null, "axis": 3}, "inbound_nodes": [[["convolution2d_1", 0, 0]]]}, {"class_name": "Convolution2D", "name": "convolution2d_2", "config": {"dim_ordering": "tf", "activity_regularizer": null, "subsample": [1, 1], "bias": true, "b_constraint": null, "nb_col": 3, "b_regularizer": null, "nb_row": 3, "border_mode": "valid", "W_regularizer": null, "trainable": false, "nb_filter": 32, "W_constraint": null, "activation": "relu", "name": "convolution2d_2", "init": "glorot_uniform"}, "inbound_nodes": [[["batchnormalization_1", 0, 0]]]}, {"class_name": "BatchNormalization", "name": "batchnormalization_2", "config": {"epsilon": 1e-05, "trainable": false, "mode": 0, "beta_regularizer": null, "momentum": 0.99, "name": "batchnormalization_2", "gamma_regularizer": null, "axis": 3}, "inbound_nodes": [[["convolution2d_2", 0, 0]]]}, {"class_name": "Convolution2D", "name": "convolution2d_3", "config": {"dim_ordering": "tf", "activity_regularizer": null, "subsample": [1, 1], "bias": true, "b_constraint": null, "nb_col": 3, "b_regularizer": null, "nb_row": 3, "border_mode": "same", "W_regularizer": null, "trainable": false, "nb_filter": 64, "W_constraint": null, "activation": "relu", "name": "convolution2d_3", "init": "glorot_uniform"}, "inbound_nodes": [[["batchnormalization_2", 0, 0]]]}, {"class_name": "BatchNormalization", "name": "batchnormalization_3", "config": {"epsilon": 1e-05, "trainable": false, "mode": 0, "beta_regularizer": null, "momentum": 0.99, "name": "batchnormalization_3", "gamma_regularizer": null, "axis": 3}, "inbound_nodes": [[["convolution2d_3", 0, 0]]]}, {"class_name": "MaxPooling2D", "name": "maxpooling2d_1", "config": {"dim_ordering": "tf", "trainable": false, "pool_size": [3, 3], "strides": [2, 2], "name": "maxpooling2d_1", "border_mode": "valid"}, "inbound_nodes": [[["batchnormalization_3", 0, 0]]]}, {"class_name": "Convolution2D", "name": "convolution2d_4", "config": {"dim_ordering": "tf", "activity_regularizer": null, "subsample": [1, 1], "bias": true, "b_constraint": null, "nb_col": 1, "b_regularizer": null, "nb_row": 1, "border_mode": "valid", "W_regularizer": null, "trainable": false, "nb_filter": 80, "W_constraint": null, "activation": "relu", "name": "convolution2d_4", "init": "glorot_uniform"}, "inbound_nodes": [[["maxpooling2d_1", 0, 0]]]}, {"class_name": "BatchNormalization", "name": "batchnormalization_4", "config": {"epsilon": 1e-05, "trainable": false, "mode": 0, "beta_regularizer": null, "momentum": 0.99, "name": "batchnormalization_4", "gamma_regularizer": null, "axis": 3}, "inbound_nodes": [[["convolution2d_4", 0, 0]]]}, {"class_name": "Convolution2D", "name": "convolution2d_5", "config": {"dim_ordering": "tf", "activity_regularizer": null, "subsample": [1, 1], "bias": true, "b_constraint": null, "nb_col": 3, "b_regularizer": null, "nb_row": 3, "border_mode": "valid", "W_regularizer": null, "trainable": false, "nb_filter": 192, "W_constraint": null, "activation": "relu", "name": "convolution2d_5", "init": "glorot_uniform"}, "inbound_nodes": [[["batchnormalization_4", 0, 0]]]}, {"class_name": "BatchNormalization", "name": "batchnormalization_5", "config": {"epsilon": 1e-05, "trainable": false, "mode": 0, "beta_regularizer": null, "momentum": 0.99, "name": "batchnormalization_5", "gamma_regularizer": null, "axis": 3}, "inbound_nodes": [[["convolution2d_5", 0, 0]]]}, {"class_name": "MaxPooling2D", "name": "maxpooling2d_2", "config": {"dim_ordering": "tf", "trainable": false, "pool_size": [3, 3], "strides": [2, 2], "name": "maxpooling2d_2", "border_mode": "valid"}, "inbound_nodes": [[["batchnormalization_5", 0, 0]]]}, {"class_name": "Convolution2D", "name": "convolution2d_9", "config": {"dim_ordering": "tf", "activity_regularizer": null, "subsample": [1, 1], "bias": true, "b_constraint": null, "nb_col": 1, "b_regularizer": null, "nb_row": 1, "border_mode": "same", "W_regularizer": null, "trainable": false, "nb_filter": 64, "W_constraint": null, "activation": "relu", "name": "convolution2d_9", "init": "glorot_uniform"}, "inbound_nodes": [[["maxpooling2d_2", 0, 0]]]}, {"class_name": "BatchNormalization", "name": "batchnormalization_9", "config": {"epsilon": 1e-05, "trainable": false, "mode": 0, "beta_regularizer": null, "momentum": 0.99, "name": "batchnormalization_9", "gamma_regularizer": null, "axis": 3}, "inbound_nodes": [[["convolution2d_9", 0, 0]]]}, {"class_name": "Convolution2D", "name": "convolution2d_7", "config": {"dim_ordering": "tf", "activity_regularizer": null, "subsample": [1, 1], "bias": true, "b_constraint": null, "nb_col": 1, "b_regularizer": null, "nb_row": 1, "border_mode": "same", "W_regularizer": null, "trainable": false, "nb_filter": 48, "W_constraint": null, "activation": "relu", "name": "convolution2d_7", "init": "glorot_uniform"}, "inbound_nodes": [[["maxpooling2d_2", 0, 0]]]}, {"class_name": "Convolution2D", "name": "convolution2d_10", "config": {"dim_ordering": "tf", "activity_regularizer": null, "subsample": [1, 1], "bias": true, "b_constraint": null, "nb_col": 3, "b_regularizer": null, "nb_row": 3, "border_mode": "same", "W_regularizer": null, "trainable": false, "nb_filter": 96, "W_constraint": null, "activation": "relu", "name": "convolution2d_10", "init": "glorot_uniform"}, "inbound_nodes": [[["batchnormalization_9", 0, 0]]]}, {"class_name": "BatchNormalization", "name": "batchnormalization_7", "config": {"epsilon": 1e-05, "trainable": false, "mode": 0, "beta_regularizer": null, "momentum": 0.99, "name": "batchnormalization_7", "gamma_regularizer": null, "axis": 3}, "inbound_nodes": [[["convolution2d_7", 0, 0]]]}, {"class_name": "BatchNormalization", "name": "batchnormalization_10", "config": {"epsilon": 1e-05, "trainable": false, "mode": 0, "beta_regularizer": null, "momentum": 0.99, "name": "batchnormalization_10", "gamma_regularizer": null, "axis": 3}, "inbound_nodes": [[["convolution2d_10", 0, 0]]]}, {"class_name": "AveragePooling2D", "name": "averagepooling2d_1", "config": {"dim_ordering": "tf", "trainable": false, "pool_size": [3, 3], "strides": [1, 1], "name": "averagepooling2d_1", "border_mode": "same"}, "inbound_nodes": [[["maxpooling2d_2", 0, 0]]]}, {"class_name": "Convolution2D", "name": "convolution2d_6", "config": {"dim_ordering": "tf", "activity_regularizer": null, "subsample": [1, 1], "bias": true, "b_constraint": null, "nb_col": 1, "b_regularizer": null, "nb_row": 1, "border_mode": "same", "W_regularizer": null, "trainable": false, "nb_filter": 64, "W_constraint": null, "activation": "relu", "name": "convolution2d_6", "init": "glorot_uniform"}, "inbound_nodes": [[["maxpooling2d_2", 0, 0]]]}, {"class_name": "Convolution2D", "name": "convolution2d_8", "config": {"dim_ordering": "tf", "activity_regularizer": null, "subsample": [1, 1], "bias": true, "b_constraint": null, "nb_col": 5, "b_regularizer": null, "nb_row": 5, "border_mode": "same", "W_regularizer": null, "trainable": false, "nb_filter": 64, "W_constraint": null, "activation": "relu", "name": "convolution2d_8", "init": "glorot_uniform"}, "inbound_nodes": [[["batchnormalization_7", 0, 0]]]}, {"class_name": "Convolution2D", "name": "convolution2d_11", "config": {"dim_ordering": "tf", "activity_regularizer": null, "subsample": [1, 1], "bias": true, "b_constraint": null, "nb_col": 3, "b_regularizer": null, "nb_row": 3, "border_mode": "same", "W_regularizer": null, "trainable": false, "nb_filter": 96, "W_constraint": null, "activation": "relu", "name": "convolution2d_11", "init": "glorot_uniform"}, "inbound_nodes": [[["batchnormalization_10", 0, 0]]]}, {"class_name": "Convolution2D", "name": "convolution2d_12", "config": {"dim_ordering": "tf", "activity_regularizer": null, "subsample": [1, 1], "bias": true, "b_constraint": null, "nb_col": 1, "b_regularizer": null, "nb_row": 1, "border_mode": "same", "W_regularizer": null, "trainable": false, "nb_filter": 32, "W_constraint": null, "activation": "relu", "name": "convolution2d_12", "init": "glorot_uniform"}, "inbound_nodes": [[["averagepooling2d_1", 0, 0]]]}, {"class_name": "BatchNormalization", "name": "batchnormalization_6", "config": {"epsilon": 1e-05, "trainable": false, "mode": 0, "beta_regularizer": null, "momentum": 0.99, "name": "batchnormalization_6", "gamma_regularizer": null, "axis": 3}, "inbound_nodes": [[["convolution2d_6", 0, 0]]]}, {"class_name": "BatchNormalization", "name": "batchnormalization_8", "config": {"epsilon": 1e-05, "trainable": false, "mode": 0, "beta_regularizer": null, "momentum": 0.99, "name": "batchnormalization_8", "gamma_regularizer": null, "axis": 3}, "inbound_nodes": [[["convolution2d_8", 0, 0]]]}, {"class_name": "BatchNormalization", "name": "batchnormalization_11", "config": {"epsilon": 1e-05, "trainable": false, "mode": 0, "beta_regularizer": null, "momentum": 0.99, "name": "batchnormalization_11", "gamma_regularizer": null, "axis": 3}, "inbound_nodes": [[["convolution2d_11", 0, 0]]]}, {"class_name": "BatchNormalization", "name": "batchnormalization_12", "config": {"epsilon": 1e-05, "trainable": false, "mode": 0, "beta_regularizer": null, "momentum": 0.99, "name": "batchnormalization_12", "gamma_regularizer": null, "axis": 3}, "inbound_nodes": [[["convolution2d_12", 0, 0]]]}, {"class_name": "Merge", "name": "mixed0", "config": {"output_shape_type": "raw", "mode_type": "raw", "output_shape": null, "mode": "concat", "output_mask": null, "name": "mixed0", "arguments": {}, "concat_axis": 3, "output_mask_type": "raw", "dot_axes": -1}, "inbound_nodes": [[["batchnormalization_6", 0, 0], ["batchnormalization_8", 0, 0], ["batchnormalization_11", 0, 0], ["batchnormalization_12", 0, 0]]]}, {"class_name": "Convolution2D", "name": "convolution2d_16", "config": {"dim_ordering": "tf", "activity_regularizer": null, "subsample": [1, 1], "bias": true, "b_constraint": null, "nb_col": 1, "b_regularizer": null, "nb_row": 1, "border_mode": "same", "W_regularizer": null, "trainable": false, "nb_filter": 64, "W_constraint": null, "activation": "relu", "name": "convolution2d_16", "init": "glorot_uniform"}, "inbound_nodes": [[["mixed0", 0, 0]]]}, {"class_name": "BatchNormalization", "name": "batchnormalization_16", "config": {"epsilon": 1e-05, "trainable": false, "mode": 0, "beta_regularizer": null, "momentum": 0.99, "name": "batchnormalization_16", "gamma_regularizer": null, "axis": 3}, "inbound_nodes": [[["convolution2d_16", 0, 0]]]}, {"class_name": "Convolution2D", "name": "convolution2d_14", "config": {"dim_ordering": "tf", "activity_regularizer": null, "subsample": [1, 1], "bias": true, "b_constraint": null, "nb_col": 1, "b_regularizer": null, "nb_row": 1, "border_mode": "same", "W_regularizer": null, "trainable": false, "nb_filter": 48, "W_constraint": null, "activation": "relu", "name": "convolution2d_14", "init": "glorot_uniform"}, "inbound_nodes": [[["mixed0", 0, 0]]]}, {"class_name": "Convolution2D", "name": "convolution2d_17", "config": {"dim_ordering": "tf", "activity_regularizer": null, "subsample": [1, 1], "bias": true, "b_constraint": null, "nb_col": 3, "b_regularizer": null, "nb_row": 3, "border_mode": "same", "W_regularizer": null, "trainable": false, "nb_filter": 96, "W_constraint": null, "activation": "relu", "name": "convolution2d_17", "init": "glorot_uniform"}, "inbound_nodes": [[["batchnormalization_16", 0, 0]]]}, {"class_name": "BatchNormalization", "name": "batchnormalization_14", "config": {"epsilon": 1e-05, "trainable": false, "mode": 0, "beta_regularizer": null, "momentum": 0.99, "name": "batchnormalization_14", "gamma_regularizer": null, "axis": 3}, "inbound_nodes": [[["convolution2d_14", 0, 0]]]}, {"class_name": "BatchNormalization", "name": "batchnormalization_17", "config": {"epsilon": 1e-05, "trainable": false, "mode": 0, "beta_regularizer": null, "momentum": 0.99, "name": "batchnormalization_17", "gamma_regularizer": null, "axis": 3}, "inbound_nodes": [[["convolution2d_17", 0, 0]]]}, {"class_name": "AveragePooling2D", "name": "averagepooling2d_2", "config": {"dim_ordering": "tf", "trainable": false, "pool_size": [3, 3], "strides": [1, 1], "name": "averagepooling2d_2", "border_mode": "same"}, "inbound_nodes": [[["mixed0", 0, 0]]]}, {"class_name": "Convolution2D", "name": "convolution2d_13", "config": {"dim_ordering": "tf", "activity_regularizer": null, "subsample": [1, 1], "bias": true, "b_constraint": null, "nb_col": 1, "b_regularizer": null, "nb_row": 1, "border_mode": "same", "W_regularizer": null, "trainable": false, "nb_filter": 64, "W_constraint": null, "activation": "relu", "name": "convolution2d_13", "init": "glorot_uniform"}, "inbound_nodes": [[["mixed0", 0, 0]]]}, {"class_name": "Convolution2D", "name": "convolution2d_15", "config": {"dim_ordering": "tf", "activity_regularizer": null, "subsample": [1, 1], "bias": true, "b_constraint": null, "nb_col": 5, "b_regularizer": null, "nb_row": 5, "border_mode": "same", "W_regularizer": null, "trainable": false, "nb_filter": 64, "W_constraint": null, "activation": "relu", "name": "convolution2d_15", "init": "glorot_uniform"}, "inbound_nodes": [[["batchnormalization_14", 0, 0]]]}, {"class_name": "Convolution2D", "name": "convolution2d_18", "config": {"dim_ordering": "tf", "activity_regularizer": null, "subsample": [1, 1], "bias": true, "b_constraint": null, "nb_col": 3, "b_regularizer": null, "nb_row": 3, "border_mode": "same", "W_regularizer": null, "trainable": false, "nb_filter": 96, "W_constraint": null, "activation": "relu", "name": "convolution2d_18", "init": "glorot_uniform"}, "inbound_nodes": [[["batchnormalization_17", 0, 0]]]}, {"class_name": "Convolution2D", "name": "convolution2d_19", "config": {"dim_ordering": "tf", "activity_regularizer": null, "subsample": [1, 1], "bias": true, "b_constraint": null, "nb_col": 1, "b_regularizer": null, "nb_row": 1, "border_mode": "same", "W_regularizer": null, "trainable": false, "nb_filter": 32, "W_constraint": null, "activation": "relu", "name": "convolution2d_19", "init": "glorot_uniform"}, "inbound_nodes": [[["averagepooling2d_2", 0, 0]]]}, {"class_name": "BatchNormalization", "name": "batchnormalization_13", "config": {"epsilon": 1e-05, "trainable": false, "mode": 0, "beta_regularizer": null, "momentum": 0.99, "name": "batchnormalization_13", "gamma_regularizer": null, "axis": 3}, "inbound_nodes": [[["convolution2d_13", 0, 0]]]}, {"class_name": "BatchNormalization", "name": "batchnormalization_15", "config": {"epsilon": 1e-05, "trainable": false, "mode": 0, "beta_regularizer": null, "momentum": 0.99, "name": "batchnormalization_15", "gamma_regularizer": null, "axis": 3}, "inbound_nodes": [[["convolution2d_15", 0, 0]]]}, {"class_name": "BatchNormalization", "name": "batchnormalization_18", "config": {"epsilon": 1e-05, "trainable": false, "mode": 0, "beta_regularizer": null, "momentum": 0.99, "name": "batchnormalization_18", "gamma_regularizer": null, "axis": 3}, "inbound_nodes": [[["convolution2d_18", 0, 0]]]}, {"class_name": "BatchNormalization", "name": "batchnormalization_19", "config": {"epsilon": 1e-05, "trainable": false, "mode": 0, "beta_regularizer": null, "momentum": 0.99, "name": "batchnormalization_19", "gamma_regularizer": null, "axis": 3}, "inbound_nodes": [[["convolution2d_19", 0, 0]]]}, {"class_name": "Merge", "name": "mixed1", "config": {"output_shape_type": "raw", "mode_type": "raw", "output_shape": null, "mode": "concat", "output_mask": null, "name": "mixed1", "arguments": {}, "concat_axis": 3, "output_mask_type": "raw", "dot_axes": -1}, "inbound_nodes": [[["batchnormalization_13", 0, 0], ["batchnormalization_15", 0, 0], ["batchnormalization_18", 0, 0], ["batchnormalization_19", 0, 0]]]}, {"class_name": "Convolution2D", "name": "convolution2d_23", "config": {"dim_ordering": "tf", "activity_regularizer": null, "subsample": [1, 1], "bias": true, "b_constraint": null, "nb_col": 1, "b_regularizer": null, "nb_row": 1, "border_mode": "same", "W_regularizer": null, "trainable": false, "nb_filter": 64, "W_constraint": null, "activation": "relu", "name": "convolution2d_23", "init": "glorot_uniform"}, "inbound_nodes": [[["mixed1", 0, 0]]]}, {"class_name": "BatchNormalization", "name": "batchnormalization_23", "config": {"epsilon": 1e-05, "trainable": false, "mode": 0, "beta_regularizer": null, "momentum": 0.99, "name": "batchnormalization_23", "gamma_regularizer": null, "axis": 3}, "inbound_nodes": [[["convolution2d_23", 0, 0]]]}, {"class_name": "Convolution2D", "name": "convolution2d_21", "config": {"dim_ordering": "tf", "activity_regularizer": null, "subsample": [1, 1], "bias": true, "b_constraint": null, "nb_col": 1, "b_regularizer": null, "nb_row": 1, "border_mode": "same", "W_regularizer": null, "trainable": false, "nb_filter": 48, "W_constraint": null, "activation": "relu", "name": "convolution2d_21", "init": "glorot_uniform"}, "inbound_nodes": [[["mixed1", 0, 0]]]}, {"class_name": "Convolution2D", "name": "convolution2d_24", "config": {"dim_ordering": "tf", "activity_regularizer": null, "subsample": [1, 1], "bias": true, "b_constraint": null, "nb_col": 3, "b_regularizer": null, "nb_row": 3, "border_mode": "same", "W_regularizer": null, "trainable": false, "nb_filter": 96, "W_constraint": null, "activation": "relu", "name": "convolution2d_24", "init": "glorot_uniform"}, "inbound_nodes": [[["batchnormalization_23", 0, 0]]]}, {"class_name": "BatchNormalization", "name": "batchnormalization_21", "config": {"epsilon": 1e-05, "trainable": false, "mode": 0, "beta_regularizer": null, "momentum": 0.99, "name": "batchnormalization_21", "gamma_regularizer": null, "axis": 3}, "inbound_nodes": [[["convolution2d_21", 0, 0]]]}, {"class_name": "BatchNormalization", "name": "batchnormalization_24", "config": {"epsilon": 1e-05, "trainable": false, "mode": 0, "beta_regularizer": null, "momentum": 0.99, "name": "batchnormalization_24", "gamma_regularizer": null, "axis": 3}, "inbound_nodes": [[["convolution2d_24", 0, 0]]]}, {"class_name": "AveragePooling2D", "name": "averagepooling2d_3", "config": {"dim_ordering": "tf", "trainable": false, "pool_size": [3, 3], "strides": [1, 1], "name": "averagepooling2d_3", "border_mode": "same"}, "inbound_nodes": [[["mixed1", 0, 0]]]}, {"class_name": "Convolution2D", "name": "convolution2d_20", "config": {"dim_ordering": "tf", "activity_regularizer": null, "subsample": [1, 1], "bias": true, "b_constraint": null, "nb_col": 1, "b_regularizer": null, "nb_row": 1, "border_mode": "same", "W_regularizer": null, "trainable": false, "nb_filter": 64, "W_constraint": null, "activation": "relu", "name": "convolution2d_20", "init": "glorot_uniform"}, "inbound_nodes": [[["mixed1", 0, 0]]]}, {"class_name": "Convolution2D", "name": "convolution2d_22", "config": {"dim_ordering": "tf", "activity_regularizer": null, "subsample": [1, 1], "bias": true, "b_constraint": null, "nb_col": 5, "b_regularizer": null, "nb_row": 5, "border_mode": "same", "W_regularizer": null, "trainable": false, "nb_filter": 64, "W_constraint": null, "activation": "relu", "name": "convolution2d_22", "init": "glorot_uniform"}, "inbound_nodes": [[["batchnormalization_21", 0, 0]]]}, {"class_name": "Convolution2D", "name": "convolution2d_25", "config": {"dim_ordering": "tf", "activity_regularizer": null, "subsample": [1, 1], "bias": true, "b_constraint": null, "nb_col": 3, "b_regularizer": null, "nb_row": 3, "border_mode": "same", "W_regularizer": null, "trainable": false, "nb_filter": 96, "W_constraint": null, "activation": "relu", "name": "convolution2d_25", "init": "glorot_uniform"}, "inbound_nodes": [[["batchnormalization_24", 0, 0]]]}, {"class_name": "Convolution2D", "name": "convolution2d_26", "config": {"dim_ordering": "tf", "activity_regularizer": null, "subsample": [1, 1], "bias": true, "b_constraint": null, "nb_col": 1, "b_regularizer": null, "nb_row": 1, "border_mode": "same", "W_regularizer": null, "trainable": false, "nb_filter": 32, "W_constraint": null, "activation": "relu", "name": "convolution2d_26", "init": "glorot_uniform"}, "inbound_nodes": [[["averagepooling2d_3", 0, 0]]]}, {"class_name": "BatchNormalization", "name": "batchnormalization_20", "config": {"epsilon": 1e-05, "trainable": false, "mode": 0, "beta_regularizer": null, "momentum": 0.99, "name": "batchnormalization_20", "gamma_regularizer": null, "axis": 3}, "inbound_nodes": [[["convolution2d_20", 0, 0]]]}, {"class_name": "BatchNormalization", "name": "batchnormalization_22", "config": {"epsilon": 1e-05, "trainable": false, "mode": 0, "beta_regularizer": null, "momentum": 0.99, "name": "batchnormalization_22", "gamma_regularizer": null, "axis": 3}, "inbound_nodes": [[["convolution2d_22", 0, 0]]]}, {"class_name": "BatchNormalization", "name": "batchnormalization_25", "config": {"epsilon": 1e-05, "trainable": false, "mode": 0, "beta_regularizer": null, "momentum": 0.99, "name": "batchnormalization_25", "gamma_regularizer": null, "axis": 3}, "inbound_nodes": [[["convolution2d_25", 0, 0]]]}, {"class_name": "BatchNormalization", "name": "batchnormalization_26", "config": {"epsilon": 1e-05, "trainable": false, "mode": 0, "beta_regularizer": null, "momentum": 0.99, "name": "batchnormalization_26", "gamma_regularizer": null, "axis": 3}, "inbound_nodes": [[["convolution2d_26", 0, 0]]]}, {"class_name": "Merge", "name": "mixed2", "config": {"output_shape_type": "raw", "mode_type": "raw", "output_shape": null, "mode": "concat", "output_mask": null, "name": "mixed2", "arguments": {}, "concat_axis": 3, "output_mask_type": "raw", "dot_axes": -1}, "inbound_nodes": [[["batchnormalization_20", 0, 0], ["batchnormalization_22", 0, 0], ["batchnormalization_25", 0, 0], ["batchnormalization_26", 0, 0]]]}, {"class_name": "Convolution2D", "name": "convolution2d_28", "config": {"dim_ordering": "tf", "activity_regularizer": null, "subsample": [1, 1], "bias": true, "b_constraint": null, "nb_col": 1, "b_regularizer": null, "nb_row": 1, "border_mode": "same", "W_regularizer": null, "trainable": false, "nb_filter": 64, "W_constraint": null, "activation": "relu", "name": "convolution2d_28", "init": "glorot_uniform"}, "inbound_nodes": [[["mixed2", 0, 0]]]}, {"class_name": "BatchNormalization", "name": "batchnormalization_28", "config": {"epsilon": 1e-05, "trainable": false, "mode": 0, "beta_regularizer": null, "momentum": 0.99, "name": "batchnormalization_28", "gamma_regularizer": null, "axis": 3}, "inbound_nodes": [[["convolution2d_28", 0, 0]]]}, {"class_name": "Convolution2D", "name": "convolution2d_29", "config": {"dim_ordering": "tf", "activity_regularizer": null, "subsample": [1, 1], "bias": true, "b_constraint": null, "nb_col": 3, "b_regularizer": null, "nb_row": 3, "border_mode": "same", "W_regularizer": null, "trainable": false, "nb_filter": 96, "W_constraint": null, "activation": "relu", "name": "convolution2d_29", "init": "glorot_uniform"}, "inbound_nodes": [[["batchnormalization_28", 0, 0]]]}, {"class_name": "BatchNormalization", "name": "batchnormalization_29", "config": {"epsilon": 1e-05, "trainable": false, "mode": 0, "beta_regularizer": null, "momentum": 0.99, "name": "batchnormalization_29", "gamma_regularizer": null, "axis": 3}, "inbound_nodes": [[["convolution2d_29", 0, 0]]]}, {"class_name": "Convolution2D", "name": "convolution2d_27", "config": {"dim_ordering": "tf", "activity_regularizer": null, "subsample": [2, 2], "bias": true, "b_constraint": null, "nb_col": 3, "b_regularizer": null, "nb_row": 3, "border_mode": "valid", "W_regularizer": null, "trainable": false, "nb_filter": 384, "W_constraint": null, "activation": "relu", "name": "convolution2d_27", "init": "glorot_uniform"}, "inbound_nodes": [[["mixed2", 0, 0]]]}, {"class_name": "Convolution2D", "name": "convolution2d_30", "config": {"dim_ordering": "tf", "activity_regularizer": null, "subsample": [2, 2], "bias": true, "b_constraint": null, "nb_col": 3, "b_regularizer": null, "nb_row": 3, "border_mode": "valid", "W_regularizer": null, "trainable": false, "nb_filter": 96, "W_constraint": null, "activation": "relu", "name": "convolution2d_30", "init": "glorot_uniform"}, "inbound_nodes": [[["batchnormalization_29", 0, 0]]]}, {"class_name": "BatchNormalization", "name": "batchnormalization_27", "config": {"epsilon": 1e-05, "trainable": false, "mode": 0, "beta_regularizer": null, "momentum": 0.99, "name": "batchnormalization_27", "gamma_regularizer": null, "axis": 3}, "inbound_nodes": [[["convolution2d_27", 0, 0]]]}, {"class_name": "BatchNormalization", "name": "batchnormalization_30", "config": {"epsilon": 1e-05, "trainable": false, "mode": 0, "beta_regularizer": null, "momentum": 0.99, "name": "batchnormalization_30", "gamma_regularizer": null, "axis": 3}, "inbound_nodes": [[["convolution2d_30", 0, 0]]]}, {"class_name": "MaxPooling2D", "name": "maxpooling2d_3", "config": {"dim_ordering": "tf", "trainable": false, "pool_size": [3, 3], "strides": [2, 2], "name": "maxpooling2d_3", "border_mode": "valid"}, "inbound_nodes": [[["mixed2", 0, 0]]]}, {"class_name": "Merge", "name": "mixed3", "config": {"output_shape_type": "raw", "mode_type": "raw", "output_shape": null, "mode": "concat", "output_mask": null, "name": "mixed3", "arguments": {}, "concat_axis": 3, "output_mask_type": "raw", "dot_axes": -1}, "inbound_nodes": [[["batchnormalization_27", 0, 0], ["batchnormalization_30", 0, 0], ["maxpooling2d_3", 0, 0]]]}, {"class_name": "Convolution2D", "name": "convolution2d_35", "config": {"dim_ordering": "tf", "activity_regularizer": null, "subsample": [1, 1], "bias": true, "b_constraint": null, "nb_col": 1, "b_regularizer": null, "nb_row": 1, "border_mode": "same", "W_regularizer": null, "trainable": false, "nb_filter": 128, "W_constraint": null, "activation": "relu", "name": "convolution2d_35", "init": "glorot_uniform"}, "inbound_nodes": [[["mixed3", 0, 0]]]}, {"class_name": "BatchNormalization", "name": "batchnormalization_35", "config": {"epsilon": 1e-05, "trainable": false, "mode": 0, "beta_regularizer": null, "momentum": 0.99, "name": "batchnormalization_35", "gamma_regularizer": null, "axis": 3}, "inbound_nodes": [[["convolution2d_35", 0, 0]]]}, {"class_name": "Convolution2D", "name": "convolution2d_36", "config": {"dim_ordering": "tf", "activity_regularizer": null, "subsample": [1, 1], "bias": true, "b_constraint": null, "nb_col": 1, "b_regularizer": null, "nb_row": 7, "border_mode": "same", "W_regularizer": null, "trainable": false, "nb_filter": 128, "W_constraint": null, "activation": "relu", "name": "convolution2d_36", "init": "glorot_uniform"}, "inbound_nodes": [[["batchnormalization_35", 0, 0]]]}, {"class_name": "BatchNormalization", "name": "batchnormalization_36", "config": {"epsilon": 1e-05, "trainable": false, "mode": 0, "beta_regularizer": null, "momentum": 0.99, "name": "batchnormalization_36", "gamma_regularizer": null, "axis": 3}, "inbound_nodes": [[["convolution2d_36", 0, 0]]]}, {"class_name": "Convolution2D", "name": "convolution2d_32", "config": {"dim_ordering": "tf", "activity_regularizer": null, "subsample": [1, 1], "bias": true, "b_constraint": null, "nb_col": 1, "b_regularizer": null, "nb_row": 1, "border_mode": "same", "W_regularizer": null, "trainable": false, "nb_filter": 128, "W_constraint": null, "activation": "relu", "name": "convolution2d_32", "init": "glorot_uniform"}, "inbound_nodes": [[["mixed3", 0, 0]]]}, {"class_name": "Convolution2D", "name": "convolution2d_37", "config": {"dim_ordering": "tf", "activity_regularizer": null, "subsample": [1, 1], "bias": true, "b_constraint": null, "nb_col": 7, "b_regularizer": null, "nb_row": 1, "border_mode": "same", "W_regularizer": null, "trainable": false, "nb_filter": 128, "W_constraint": null, "activation": "relu", "name": "convolution2d_37", "init": "glorot_uniform"}, "inbound_nodes": [[["batchnormalization_36", 0, 0]]]}, {"class_name": "BatchNormalization", "name": "batchnormalization_32", "config": {"epsilon": 1e-05, "trainable": false, "mode": 0, "beta_regularizer": null, "momentum": 0.99, "name": "batchnormalization_32", "gamma_regularizer": null, "axis": 3}, "inbound_nodes": [[["convolution2d_32", 0, 0]]]}, {"class_name": "BatchNormalization", "name": "batchnormalization_37", "config": {"epsilon": 1e-05, "trainable": false, "mode": 0, "beta_regularizer": null, "momentum": 0.99, "name": "batchnormalization_37", "gamma_regularizer": null, "axis": 3}, "inbound_nodes": [[["convolution2d_37", 0, 0]]]}, {"class_name": "Convolution2D", "name": "convolution2d_33", "config": {"dim_ordering": "tf", "activity_regularizer": null, "subsample": [1, 1], "bias": true, "b_constraint": null, "nb_col": 7, "b_regularizer": null, "nb_row": 1, "border_mode": "same", "W_regularizer": null, "trainable": false, "nb_filter": 128, "W_constraint": null, "activation": "relu", "name": "convolution2d_33", "init": "glorot_uniform"}, "inbound_nodes": [[["batchnormalization_32", 0, 0]]]}, {"class_name": "Convolution2D", "name": "convolution2d_38", "config": {"dim_ordering": "tf", "activity_regularizer": null, "subsample": [1, 1], "bias": true, "b_constraint": null, "nb_col": 1, "b_regularizer": null, "nb_row": 7, "border_mode": "same", "W_regularizer": null, "trainable": false, "nb_filter": 128, "W_constraint": null, "activation": "relu", "name": "convolution2d_38", "init": "glorot_uniform"}, "inbound_nodes": [[["batchnormalization_37", 0, 0]]]}, {"class_name": "BatchNormalization", "name": "batchnormalization_33", "config": {"epsilon": 1e-05, "trainable": false, "mode": 0, "beta_regularizer": null, "momentum": 0.99, "name": "batchnormalization_33", "gamma_regularizer": null, "axis": 3}, "inbound_nodes": [[["convolution2d_33", 0, 0]]]}, {"class_name": "BatchNormalization", "name": "batchnormalization_38", "config": {"epsilon": 1e-05, "trainable": false, "mode": 0, "beta_regularizer": null, "momentum": 0.99, "name": "batchnormalization_38", "gamma_regularizer": null, "axis": 3}, "inbound_nodes": [[["convolution2d_38", 0, 0]]]}, {"class_name": "AveragePooling2D", "name": "averagepooling2d_4", "config": {"dim_ordering": "tf", "trainable": false, "pool_size": [3, 3], "strides": [1, 1], "name": "averagepooling2d_4", "border_mode": "same"}, "inbound_nodes": [[["mixed3", 0, 0]]]}, {"class_name": "Convolution2D", "name": "convolution2d_31", "config": {"dim_ordering": "tf", "activity_regularizer": null, "subsample": [1, 1], "bias": true, "b_constraint": null, "nb_col": 1, "b_regularizer": null, "nb_row": 1, "border_mode": "same", "W_regularizer": null, "trainable": false, "nb_filter": 192, "W_constraint": null, "activation": "relu", "name": "convolution2d_31", "init": "glorot_uniform"}, "inbound_nodes": [[["mixed3", 0, 0]]]}, {"class_name": "Convolution2D", "name": "convolution2d_34", "config": {"dim_ordering": "tf", "activity_regularizer": null, "subsample": [1, 1], "bias": true, "b_constraint": null, "nb_col": 1, "b_regularizer": null, "nb_row": 7, "border_mode": "same", "W_regularizer": null, "trainable": false, "nb_filter": 192, "W_constraint": null, "activation": "relu", "name": "convolution2d_34", "init": "glorot_uniform"}, "inbound_nodes": [[["batchnormalization_33", 0, 0]]]}, {"class_name": "Convolution2D", "name": "convolution2d_39", "config": {"dim_ordering": "tf", "activity_regularizer": null, "subsample": [1, 1], "bias": true, "b_constraint": null, "nb_col": 7, "b_regularizer": null, "nb_row": 1, "border_mode": "same", "W_regularizer": null, "trainable": false, "nb_filter": 192, "W_constraint": null, "activation": "relu", "name": "convolution2d_39", "init": "glorot_uniform"}, "inbound_nodes": [[["batchnormalization_38", 0, 0]]]}, {"class_name": "Convolution2D", "name": "convolution2d_40", "config": {"dim_ordering": "tf", "activity_regularizer": null, "subsample": [1, 1], "bias": true, "b_constraint": null, "nb_col": 1, "b_regularizer": null, "nb_row": 1, "border_mode": "same", "W_regularizer": null, "trainable": false, "nb_filter": 192, "W_constraint": null, "activation": "relu", "name": "convolution2d_40", "init": "glorot_uniform"}, "inbound_nodes": [[["averagepooling2d_4", 0, 0]]]}, {"class_name": "BatchNormalization", "name": "batchnormalization_31", "config": {"epsilon": 1e-05, "trainable": false, "mode": 0, "beta_regularizer": null, "momentum": 0.99, "name": "batchnormalization_31", "gamma_regularizer": null, "axis": 3}, "inbound_nodes": [[["convolution2d_31", 0, 0]]]}, {"class_name": "BatchNormalization", "name": "batchnormalization_34", "config": {"epsilon": 1e-05, "trainable": false, "mode": 0, "beta_regularizer": null, "momentum": 0.99, "name": "batchnormalization_34", "gamma_regularizer": null, "axis": 3}, "inbound_nodes": [[["convolution2d_34", 0, 0]]]}, {"class_name": "BatchNormalization", "name": "batchnormalization_39", "config": {"epsilon": 1e-05, "trainable": false, "mode": 0, "beta_regularizer": null, "momentum": 0.99, "name": "batchnormalization_39", "gamma_regularizer": null, "axis": 3}, "inbound_nodes": [[["convolution2d_39", 0, 0]]]}, {"class_name": "BatchNormalization", "name": "batchnormalization_40", "config": {"epsilon": 1e-05, "trainable": false, "mode": 0, "beta_regularizer": null, "momentum": 0.99, "name": "batchnormalization_40", "gamma_regularizer": null, "axis": 3}, "inbound_nodes": [[["convolution2d_40", 0, 0]]]}, {"class_name": "Merge", "name": "mixed4", "config": {"output_shape_type": "raw", "mode_type": "raw", "output_shape": null, "mode": "concat", "output_mask": null, "name": "mixed4", "arguments": {}, "concat_axis": 3, "output_mask_type": "raw", "dot_axes": -1}, "inbound_nodes": [[["batchnormalization_31", 0, 0], ["batchnormalization_34", 0, 0], ["batchnormalization_39", 0, 0], ["batchnormalization_40", 0, 0]]]}, {"class_name": "Convolution2D", "name": "convolution2d_45", "config": {"dim_ordering": "tf", "activity_regularizer": null, "subsample": [1, 1], "bias": true, "b_constraint": null, "nb_col": 1, "b_regularizer": null, "nb_row": 1, "border_mode": "same", "W_regularizer": null, "trainable": false, "nb_filter": 160, "W_constraint": null, "activation": "relu", "name": "convolution2d_45", "init": "glorot_uniform"}, "inbound_nodes": [[["mixed4", 0, 0]]]}, {"class_name": "BatchNormalization", "name": "batchnormalization_45", "config": {"epsilon": 1e-05, "trainable": false, "mode": 0, "beta_regularizer": null, "momentum": 0.99, "name": "batchnormalization_45", "gamma_regularizer": null, "axis": 3}, "inbound_nodes": [[["convolution2d_45", 0, 0]]]}, {"class_name": "Convolution2D", "name": "convolution2d_46", "config": {"dim_ordering": "tf", "activity_regularizer": null, "subsample": [1, 1], "bias": true, "b_constraint": null, "nb_col": 1, "b_regularizer": null, "nb_row": 7, "border_mode": "same", "W_regularizer": null, "trainable": false, "nb_filter": 160, "W_constraint": null, "activation": "relu", "name": "convolution2d_46", "init": "glorot_uniform"}, "inbound_nodes": [[["batchnormalization_45", 0, 0]]]}, {"class_name": "BatchNormalization", "name": "batchnormalization_46", "config": {"epsilon": 1e-05, "trainable": false, "mode": 0, "beta_regularizer": null, "momentum": 0.99, "name": "batchnormalization_46", "gamma_regularizer": null, "axis": 3}, "inbound_nodes": [[["convolution2d_46", 0, 0]]]}, {"class_name": "Convolution2D", "name": "convolution2d_42", "config": {"dim_ordering": "tf", "activity_regularizer": null, "subsample": [1, 1], "bias": true, "b_constraint": null, "nb_col": 1, "b_regularizer": null, "nb_row": 1, "border_mode": "same", "W_regularizer": null, "trainable": false, "nb_filter": 160, "W_constraint": null, "activation": "relu", "name": "convolution2d_42", "init": "glorot_uniform"}, "inbound_nodes": [[["mixed4", 0, 0]]]}, {"class_name": "Convolution2D", "name": "convolution2d_47", "config": {"dim_ordering": "tf", "activity_regularizer": null, "subsample": [1, 1], "bias": true, "b_constraint": null, "nb_col": 7, "b_regularizer": null, "nb_row": 1, "border_mode": "same", "W_regularizer": null, "trainable": false, "nb_filter": 160, "W_constraint": null, "activation": "relu", "name": "convolution2d_47", "init": "glorot_uniform"}, "inbound_nodes": [[["batchnormalization_46", 0, 0]]]}, {"class_name": "BatchNormalization", "name": "batchnormalization_42", "config": {"epsilon": 1e-05, "trainable": false, "mode": 0, "beta_regularizer": null, "momentum": 0.99, "name": "batchnormalization_42", "gamma_regularizer": null, "axis": 3}, "inbound_nodes": [[["convolution2d_42", 0, 0]]]}, {"class_name": "BatchNormalization", "name": "batchnormalization_47", "config": {"epsilon": 1e-05, "trainable": false, "mode": 0, "beta_regularizer": null, "momentum": 0.99, "name": "batchnormalization_47", "gamma_regularizer": null, "axis": 3}, "inbound_nodes": [[["convolution2d_47", 0, 0]]]}, {"class_name": "Convolution2D", "name": "convolution2d_43", "config": {"dim_ordering": "tf", "activity_regularizer": null, "subsample": [1, 1], "bias": true, "b_constraint": null, "nb_col": 7, "b_regularizer": null, "nb_row": 1, "border_mode": "same", "W_regularizer": null, "trainable": false, "nb_filter": 160, "W_constraint": null, "activation": "relu", "name": "convolution2d_43", "init": "glorot_uniform"}, "inbound_nodes": [[["batchnormalization_42", 0, 0]]]}, {"class_name": "Convolution2D", "name": "convolution2d_48", "config": {"dim_ordering": "tf", "activity_regularizer": null, "subsample": [1, 1], "bias": true, "b_constraint": null, "nb_col": 1, "b_regularizer": null, "nb_row": 7, "border_mode": "same", "W_regularizer": null, "trainable": false, "nb_filter": 160, "W_constraint": null, "activation": "relu", "name": "convolution2d_48", "init": "glorot_uniform"}, "inbound_nodes": [[["batchnormalization_47", 0, 0]]]}, {"class_name": "BatchNormalization", "name": "batchnormalization_43", "config": {"epsilon": 1e-05, "trainable": false, "mode": 0, "beta_regularizer": null, "momentum": 0.99, "name": "batchnormalization_43", "gamma_regularizer": null, "axis": 3}, "inbound_nodes": [[["convolution2d_43", 0, 0]]]}, {"class_name": "BatchNormalization", "name": "batchnormalization_48", "config": {"epsilon": 1e-05, "trainable": false, "mode": 0, "beta_regularizer": null, "momentum": 0.99, "name": "batchnormalization_48", "gamma_regularizer": null, "axis": 3}, "inbound_nodes": [[["convolution2d_48", 0, 0]]]}, {"class_name": "AveragePooling2D", "name": "averagepooling2d_5", "config": {"dim_ordering": "tf", "trainable": false, "pool_size": [3, 3], "strides": [1, 1], "name": "averagepooling2d_5", "border_mode": "same"}, "inbound_nodes": [[["mixed4", 0, 0]]]}, {"class_name": "Convolution2D", "name": "convolution2d_41", "config": {"dim_ordering": "tf", "activity_regularizer": null, "subsample": [1, 1], "bias": true, "b_constraint": null, "nb_col": 1, "b_regularizer": null, "nb_row": 1, "border_mode": "same", "W_regularizer": null, "trainable": false, "nb_filter": 192, "W_constraint": null, "activation": "relu", "name": "convolution2d_41", "init": "glorot_uniform"}, "inbound_nodes": [[["mixed4", 0, 0]]]}, {"class_name": "Convolution2D", "name": "convolution2d_44", "config": {"dim_ordering": "tf", "activity_regularizer": null, "subsample": [1, 1], "bias": true, "b_constraint": null, "nb_col": 1, "b_regularizer": null, "nb_row": 7, "border_mode": "same", "W_regularizer": null, "trainable": false, "nb_filter": 192, "W_constraint": null, "activation": "relu", "name": "convolution2d_44", "init": "glorot_uniform"}, "inbound_nodes": [[["batchnormalization_43", 0, 0]]]}, {"class_name": "Convolution2D", "name": "convolution2d_49", "config": {"dim_ordering": "tf", "activity_regularizer": null, "subsample": [1, 1], "bias": true, "b_constraint": null, "nb_col": 7, "b_regularizer": null, "nb_row": 1, "border_mode": "same", "W_regularizer": null, "trainable": false, "nb_filter": 192, "W_constraint": null, "activation": "relu", "name": "convolution2d_49", "init": "glorot_uniform"}, "inbound_nodes": [[["batchnormalization_48", 0, 0]]]}, {"class_name": "Convolution2D", "name": "convolution2d_50", "config": {"dim_ordering": "tf", "activity_regularizer": null, "subsample": [1, 1], "bias": true, "b_constraint": null, "nb_col": 1, "b_regularizer": null, "nb_row": 1, "border_mode": "same", "W_regularizer": null, "trainable": false, "nb_filter": 192, "W_constraint": null, "activation": "relu", "name": "convolution2d_50", "init": "glorot_uniform"}, "inbound_nodes": [[["averagepooling2d_5", 0, 0]]]}, {"class_name": "BatchNormalization", "name": "batchnormalization_41", "config": {"epsilon": 1e-05, "trainable": false, "mode": 0, "beta_regularizer": null, "momentum": 0.99, "name": "batchnormalization_41", "gamma_regularizer": null, "axis": 3}, "inbound_nodes": [[["convolution2d_41", 0, 0]]]}, {"class_name": "BatchNormalization", "name": "batchnormalization_44", "config": {"epsilon": 1e-05, "trainable": false, "mode": 0, "beta_regularizer": null, "momentum": 0.99, "name": "batchnormalization_44", "gamma_regularizer": null, "axis": 3}, "inbound_nodes": [[["convolution2d_44", 0, 0]]]}, {"class_name": "BatchNormalization", "name": "batchnormalization_49", "config": {"epsilon": 1e-05, "trainable": false, "mode": 0, "beta_regularizer": null, "momentum": 0.99, "name": "batchnormalization_49", "gamma_regularizer": null, "axis": 3}, "inbound_nodes": [[["convolution2d_49", 0, 0]]]}, {"class_name": "BatchNormalization", "name": "batchnormalization_50", "config": {"epsilon": 1e-05, "trainable": false, "mode": 0, "beta_regularizer": null, "momentum": 0.99, "name": "batchnormalization_50", "gamma_regularizer": null, "axis": 3}, "inbound_nodes": [[["convolution2d_50", 0, 0]]]}, {"class_name": "Merge", "name": "mixed5", "config": {"output_shape_type": "raw", "mode_type": "raw", "output_shape": null, "mode": "concat", "output_mask": null, "name": "mixed5", "arguments": {}, "concat_axis": 3, "output_mask_type": "raw", "dot_axes": -1}, "inbound_nodes": [[["batchnormalization_41", 0, 0], ["batchnormalization_44", 0, 0], ["batchnormalization_49", 0, 0], ["batchnormalization_50", 0, 0]]]}, {"class_name": "Convolution2D", "name": "convolution2d_55", "config": {"dim_ordering": "tf", "activity_regularizer": null, "subsample": [1, 1], "bias": true, "b_constraint": null, "nb_col": 1, "b_regularizer": null, "nb_row": 1, "border_mode": "same", "W_regularizer": null, "trainable": false, "nb_filter": 160, "W_constraint": null, "activation": "relu", "name": "convolution2d_55", "init": "glorot_uniform"}, "inbound_nodes": [[["mixed5", 0, 0]]]}, {"class_name": "BatchNormalization", "name": "batchnormalization_55", "config": {"epsilon": 1e-05, "trainable": false, "mode": 0, "beta_regularizer": null, "momentum": 0.99, "name": "batchnormalization_55", "gamma_regularizer": null, "axis": 3}, "inbound_nodes": [[["convolution2d_55", 0, 0]]]}, {"class_name": "Convolution2D", "name": "convolution2d_56", "config": {"dim_ordering": "tf", "activity_regularizer": null, "subsample": [1, 1], "bias": true, "b_constraint": null, "nb_col": 1, "b_regularizer": null, "nb_row": 7, "border_mode": "same", "W_regularizer": null, "trainable": false, "nb_filter": 160, "W_constraint": null, "activation": "relu", "name": "convolution2d_56", "init": "glorot_uniform"}, "inbound_nodes": [[["batchnormalization_55", 0, 0]]]}, {"class_name": "BatchNormalization", "name": "batchnormalization_56", "config": {"epsilon": 1e-05, "trainable": false, "mode": 0, "beta_regularizer": null, "momentum": 0.99, "name": "batchnormalization_56", "gamma_regularizer": null, "axis": 3}, "inbound_nodes": [[["convolution2d_56", 0, 0]]]}, {"class_name": "Convolution2D", "name": "convolution2d_52", "config": {"dim_ordering": "tf", "activity_regularizer": null, "subsample": [1, 1], "bias": true, "b_constraint": null, "nb_col": 1, "b_regularizer": null, "nb_row": 1, "border_mode": "same", "W_regularizer": null, "trainable": false, "nb_filter": 160, "W_constraint": null, "activation": "relu", "name": "convolution2d_52", "init": "glorot_uniform"}, "inbound_nodes": [[["mixed5", 0, 0]]]}, {"class_name": "Convolution2D", "name": "convolution2d_57", "config": {"dim_ordering": "tf", "activity_regularizer": null, "subsample": [1, 1], "bias": true, "b_constraint": null, "nb_col": 7, "b_regularizer": null, "nb_row": 1, "border_mode": "same", "W_regularizer": null, "trainable": false, "nb_filter": 160, "W_constraint": null, "activation": "relu", "name": "convolution2d_57", "init": "glorot_uniform"}, "inbound_nodes": [[["batchnormalization_56", 0, 0]]]}, {"class_name": "BatchNormalization", "name": "batchnormalization_52", "config": {"epsilon": 1e-05, "trainable": false, "mode": 0, "beta_regularizer": null, "momentum": 0.99, "name": "batchnormalization_52", "gamma_regularizer": null, "axis": 3}, "inbound_nodes": [[["convolution2d_52", 0, 0]]]}, {"class_name": "BatchNormalization", "name": "batchnormalization_57", "config": {"epsilon": 1e-05, "trainable": false, "mode": 0, "beta_regularizer": null, "momentum": 0.99, "name": "batchnormalization_57", "gamma_regularizer": null, "axis": 3}, "inbound_nodes": [[["convolution2d_57", 0, 0]]]}, {"class_name": "Convolution2D", "name": "convolution2d_53", "config": {"dim_ordering": "tf", "activity_regularizer": null, "subsample": [1, 1], "bias": true, "b_constraint": null, "nb_col": 7, "b_regularizer": null, "nb_row": 1, "border_mode": "same", "W_regularizer": null, "trainable": false, "nb_filter": 160, "W_constraint": null, "activation": "relu", "name": "convolution2d_53", "init": "glorot_uniform"}, "inbound_nodes": [[["batchnormalization_52", 0, 0]]]}, {"class_name": "Convolution2D", "name": "convolution2d_58", "config": {"dim_ordering": "tf", "activity_regularizer": null, "subsample": [1, 1], "bias": true, "b_constraint": null, "nb_col": 1, "b_regularizer": null, "nb_row": 7, "border_mode": "same", "W_regularizer": null, "trainable": false, "nb_filter": 160, "W_constraint": null, "activation": "relu", "name": "convolution2d_58", "init": "glorot_uniform"}, "inbound_nodes": [[["batchnormalization_57", 0, 0]]]}, {"class_name": "BatchNormalization", "name": "batchnormalization_53", "config": {"epsilon": 1e-05, "trainable": false, "mode": 0, "beta_regularizer": null, "momentum": 0.99, "name": "batchnormalization_53", "gamma_regularizer": null, "axis": 3}, "inbound_nodes": [[["convolution2d_53", 0, 0]]]}, {"class_name": "BatchNormalization", "name": "batchnormalization_58", "config": {"epsilon": 1e-05, "trainable": false, "mode": 0, "beta_regularizer": null, "momentum": 0.99, "name": "batchnormalization_58", "gamma_regularizer": null, "axis": 3}, "inbound_nodes": [[["convolution2d_58", 0, 0]]]}, {"class_name": "AveragePooling2D", "name": "averagepooling2d_6", "config": {"dim_ordering": "tf", "trainable": false, "pool_size": [3, 3], "strides": [1, 1], "name": "averagepooling2d_6", "border_mode": "same"}, "inbound_nodes": [[["mixed5", 0, 0]]]}, {"class_name": "Convolution2D", "name": "convolution2d_51", "config": {"dim_ordering": "tf", "activity_regularizer": null, "subsample": [1, 1], "bias": true, "b_constraint": null, "nb_col": 1, "b_regularizer": null, "nb_row": 1, "border_mode": "same", "W_regularizer": null, "trainable": false, "nb_filter": 192, "W_constraint": null, "activation": "relu", "name": "convolution2d_51", "init": "glorot_uniform"}, "inbound_nodes": [[["mixed5", 0, 0]]]}, {"class_name": "Convolution2D", "name": "convolution2d_54", "config": {"dim_ordering": "tf", "activity_regularizer": null, "subsample": [1, 1], "bias": true, "b_constraint": null, "nb_col": 1, "b_regularizer": null, "nb_row": 7, "border_mode": "same", "W_regularizer": null, "trainable": false, "nb_filter": 192, "W_constraint": null, "activation": "relu", "name": "convolution2d_54", "init": "glorot_uniform"}, "inbound_nodes": [[["batchnormalization_53", 0, 0]]]}, {"class_name": "Convolution2D", "name": "convolution2d_59", "config": {"dim_ordering": "tf", "activity_regularizer": null, "subsample": [1, 1], "bias": true, "b_constraint": null, "nb_col": 7, "b_regularizer": null, "nb_row": 1, "border_mode": "same", "W_regularizer": null, "trainable": false, "nb_filter": 192, "W_constraint": null, "activation": "relu", "name": "convolution2d_59", "init": "glorot_uniform"}, "inbound_nodes": [[["batchnormalization_58", 0, 0]]]}, {"class_name": "Convolution2D", "name": "convolution2d_60", "config": {"dim_ordering": "tf", "activity_regularizer": null, "subsample": [1, 1], "bias": true, "b_constraint": null, "nb_col": 1, "b_regularizer": null, "nb_row": 1, "border_mode": "same", "W_regularizer": null, "trainable": false, "nb_filter": 192, "W_constraint": null, "activation": "relu", "name": "convolution2d_60", "init": "glorot_uniform"}, "inbound_nodes": [[["averagepooling2d_6", 0, 0]]]}, {"class_name": "BatchNormalization", "name": "batchnormalization_51", "config": {"epsilon": 1e-05, "trainable": false, "mode": 0, "beta_regularizer": null, "momentum": 0.99, "name": "batchnormalization_51", "gamma_regularizer": null, "axis": 3}, "inbound_nodes": [[["convolution2d_51", 0, 0]]]}, {"class_name": "BatchNormalization", "name": "batchnormalization_54", "config": {"epsilon": 1e-05, "trainable": false, "mode": 0, "beta_regularizer": null, "momentum": 0.99, "name": "batchnormalization_54", "gamma_regularizer": null, "axis": 3}, "inbound_nodes": [[["convolution2d_54", 0, 0]]]}, {"class_name": "BatchNormalization", "name": "batchnormalization_59", "config": {"epsilon": 1e-05, "trainable": false, "mode": 0, "beta_regularizer": null, "momentum": 0.99, "name": "batchnormalization_59", "gamma_regularizer": null, "axis": 3}, "inbound_nodes": [[["convolution2d_59", 0, 0]]]}, {"class_name": "BatchNormalization", "name": "batchnormalization_60", "config": {"epsilon": 1e-05, "trainable": false, "mode": 0, "beta_regularizer": null, "momentum": 0.99, "name": "batchnormalization_60", "gamma_regularizer": null, "axis": 3}, "inbound_nodes": [[["convolution2d_60", 0, 0]]]}, {"class_name": "Merge", "name": "mixed6", "config": {"output_shape_type": "raw", "mode_type": "raw", "output_shape": null, "mode": "concat", "output_mask": null, "name": "mixed6", "arguments": {}, "concat_axis": 3, "output_mask_type": "raw", "dot_axes": -1}, "inbound_nodes": [[["batchnormalization_51", 0, 0], ["batchnormalization_54", 0, 0], ["batchnormalization_59", 0, 0], ["batchnormalization_60", 0, 0]]]}, {"class_name": "Convolution2D", "name": "convolution2d_65", "config": {"dim_ordering": "tf", "activity_regularizer": null, "subsample": [1, 1], "bias": true, "b_constraint": null, "nb_col": 1, "b_regularizer": null, "nb_row": 1, "border_mode": "same", "W_regularizer": null, "trainable": false, "nb_filter": 160, "W_constraint": null, "activation": "relu", "name": "convolution2d_65", "init": "glorot_uniform"}, "inbound_nodes": [[["mixed6", 0, 0]]]}, {"class_name": "BatchNormalization", "name": "batchnormalization_65", "config": {"epsilon": 1e-05, "trainable": false, "mode": 0, "beta_regularizer": null, "momentum": 0.99, "name": "batchnormalization_65", "gamma_regularizer": null, "axis": 3}, "inbound_nodes": [[["convolution2d_65", 0, 0]]]}, {"class_name": "Convolution2D", "name": "convolution2d_66", "config": {"dim_ordering": "tf", "activity_regularizer": null, "subsample": [1, 1], "bias": true, "b_constraint": null, "nb_col": 1, "b_regularizer": null, "nb_row": 7, "border_mode": "same", "W_regularizer": null, "trainable": false, "nb_filter": 192, "W_constraint": null, "activation": "relu", "name": "convolution2d_66", "init": "glorot_uniform"}, "inbound_nodes": [[["batchnormalization_65", 0, 0]]]}, {"class_name": "BatchNormalization", "name": "batchnormalization_66", "config": {"epsilon": 1e-05, "trainable": false, "mode": 0, "beta_regularizer": null, "momentum": 0.99, "name": "batchnormalization_66", "gamma_regularizer": null, "axis": 3}, "inbound_nodes": [[["convolution2d_66", 0, 0]]]}, {"class_name": "Convolution2D", "name": "convolution2d_62", "config": {"dim_ordering": "tf", "activity_regularizer": null, "subsample": [1, 1], "bias": true, "b_constraint": null, "nb_col": 1, "b_regularizer": null, "nb_row": 1, "border_mode": "same", "W_regularizer": null, "trainable": false, "nb_filter": 192, "W_constraint": null, "activation": "relu", "name": "convolution2d_62", "init": "glorot_uniform"}, "inbound_nodes": [[["mixed6", 0, 0]]]}, {"class_name": "Convolution2D", "name": "convolution2d_67", "config": {"dim_ordering": "tf", "activity_regularizer": null, "subsample": [1, 1], "bias": true, "b_constraint": null, "nb_col": 7, "b_regularizer": null, "nb_row": 1, "border_mode": "same", "W_regularizer": null, "trainable": false, "nb_filter": 192, "W_constraint": null, "activation": "relu", "name": "convolution2d_67", "init": "glorot_uniform"}, "inbound_nodes": [[["batchnormalization_66", 0, 0]]]}, {"class_name": "BatchNormalization", "name": "batchnormalization_62", "config": {"epsilon": 1e-05, "trainable": false, "mode": 0, "beta_regularizer": null, "momentum": 0.99, "name": "batchnormalization_62", "gamma_regularizer": null, "axis": 3}, "inbound_nodes": [[["convolution2d_62", 0, 0]]]}, {"class_name": "BatchNormalization", "name": "batchnormalization_67", "config": {"epsilon": 1e-05, "trainable": false, "mode": 0, "beta_regularizer": null, "momentum": 0.99, "name": "batchnormalization_67", "gamma_regularizer": null, "axis": 3}, "inbound_nodes": [[["convolution2d_67", 0, 0]]]}, {"class_name": "Convolution2D", "name": "convolution2d_63", "config": {"dim_ordering": "tf", "activity_regularizer": null, "subsample": [1, 1], "bias": true, "b_constraint": null, "nb_col": 7, "b_regularizer": null, "nb_row": 1, "border_mode": "same", "W_regularizer": null, "trainable": false, "nb_filter": 192, "W_constraint": null, "activation": "relu", "name": "convolution2d_63", "init": "glorot_uniform"}, "inbound_nodes": [[["batchnormalization_62", 0, 0]]]}, {"class_name": "Convolution2D", "name": "convolution2d_68", "config": {"dim_ordering": "tf", "activity_regularizer": null, "subsample": [1, 1], "bias": true, "b_constraint": null, "nb_col": 1, "b_regularizer": null, "nb_row": 7, "border_mode": "same", "W_regularizer": null, "trainable": false, "nb_filter": 192, "W_constraint": null, "activation": "relu", "name": "convolution2d_68", "init": "glorot_uniform"}, "inbound_nodes": [[["batchnormalization_67", 0, 0]]]}, {"class_name": "BatchNormalization", "name": "batchnormalization_63", "config": {"epsilon": 1e-05, "trainable": false, "mode": 0, "beta_regularizer": null, "momentum": 0.99, "name": "batchnormalization_63", "gamma_regularizer": null, "axis": 3}, "inbound_nodes": [[["convolution2d_63", 0, 0]]]}, {"class_name": "BatchNormalization", "name": "batchnormalization_68", "config": {"epsilon": 1e-05, "trainable": false, "mode": 0, "beta_regularizer": null, "momentum": 0.99, "name": "batchnormalization_68", "gamma_regularizer": null, "axis": 3}, "inbound_nodes": [[["convolution2d_68", 0, 0]]]}, {"class_name": "AveragePooling2D", "name": "averagepooling2d_7", "config": {"dim_ordering": "tf", "trainable": false, "pool_size": [3, 3], "strides": [1, 1], "name": "averagepooling2d_7", "border_mode": "same"}, "inbound_nodes": [[["mixed6", 0, 0]]]}, {"class_name": "Convolution2D", "name": "convolution2d_61", "config": {"dim_ordering": "tf", "activity_regularizer": null, "subsample": [1, 1], "bias": true, "b_constraint": null, "nb_col": 1, "b_regularizer": null, "nb_row": 1, "border_mode": "same", "W_regularizer": null, "trainable": false, "nb_filter": 192, "W_constraint": null, "activation": "relu", "name": "convolution2d_61", "init": "glorot_uniform"}, "inbound_nodes": [[["mixed6", 0, 0]]]}, {"class_name": "Convolution2D", "name": "convolution2d_64", "config": {"dim_ordering": "tf", "activity_regularizer": null, "subsample": [1, 1], "bias": true, "b_constraint": null, "nb_col": 1, "b_regularizer": null, "nb_row": 7, "border_mode": "same", "W_regularizer": null, "trainable": false, "nb_filter": 192, "W_constraint": null, "activation": "relu", "name": "convolution2d_64", "init": "glorot_uniform"}, "inbound_nodes": [[["batchnormalization_63", 0, 0]]]}, {"class_name": "Convolution2D", "name": "convolution2d_69", "config": {"dim_ordering": "tf", "activity_regularizer": null, "subsample": [1, 1], "bias": true, "b_constraint": null, "nb_col": 7, "b_regularizer": null, "nb_row": 1, "border_mode": "same", "W_regularizer": null, "trainable": false, "nb_filter": 192, "W_constraint": null, "activation": "relu", "name": "convolution2d_69", "init": "glorot_uniform"}, "inbound_nodes": [[["batchnormalization_68", 0, 0]]]}, {"class_name": "Convolution2D", "name": "convolution2d_70", "config": {"dim_ordering": "tf", "activity_regularizer": null, "subsample": [1, 1], "bias": true, "b_constraint": null, "nb_col": 1, "b_regularizer": null, "nb_row": 1, "border_mode": "same", "W_regularizer": null, "trainable": false, "nb_filter": 192, "W_constraint": null, "activation": "relu", "name": "convolution2d_70", "init": "glorot_uniform"}, "inbound_nodes": [[["averagepooling2d_7", 0, 0]]]}, {"class_name": "BatchNormalization", "name": "batchnormalization_61", "config": {"epsilon": 1e-05, "trainable": false, "mode": 0, "beta_regularizer": null, "momentum": 0.99, "name": "batchnormalization_61", "gamma_regularizer": null, "axis": 3}, "inbound_nodes": [[["convolution2d_61", 0, 0]]]}, {"class_name": "BatchNormalization", "name": "batchnormalization_64", "config": {"epsilon": 1e-05, "trainable": false, "mode": 0, "beta_regularizer": null, "momentum": 0.99, "name": "batchnormalization_64", "gamma_regularizer": null, "axis": 3}, "inbound_nodes": [[["convolution2d_64", 0, 0]]]}, {"class_name": "BatchNormalization", "name": "batchnormalization_69", "config": {"epsilon": 1e-05, "trainable": false, "mode": 0, "beta_regularizer": null, "momentum": 0.99, "name": "batchnormalization_69", "gamma_regularizer": null, "axis": 3}, "inbound_nodes": [[["convolution2d_69", 0, 0]]]}, {"class_name": "BatchNormalization", "name": "batchnormalization_70", "config": {"epsilon": 1e-05, "trainable": false, "mode": 0, "beta_regularizer": null, "momentum": 0.99, "name": "batchnormalization_70", "gamma_regularizer": null, "axis": 3}, "inbound_nodes": [[["convolution2d_70", 0, 0]]]}, {"class_name": "Merge", "name": "mixed7", "config": {"output_shape_type": "raw", "mode_type": "raw", "output_shape": null, "mode": "concat", "output_mask": null, "name": "mixed7", "arguments": {}, "concat_axis": 3, "output_mask_type": "raw", "dot_axes": -1}, "inbound_nodes": [[["batchnormalization_61", 0, 0], ["batchnormalization_64", 0, 0], ["batchnormalization_69", 0, 0], ["batchnormalization_70", 0, 0]]]}, {"class_name": "Convolution2D", "name": "convolution2d_73", "config": {"dim_ordering": "tf", "activity_regularizer": null, "subsample": [1, 1], "bias": true, "b_constraint": null, "nb_col": 1, "b_regularizer": null, "nb_row": 1, "border_mode": "same", "W_regularizer": null, "trainable": false, "nb_filter": 192, "W_constraint": null, "activation": "relu", "name": "convolution2d_73", "init": "glorot_uniform"}, "inbound_nodes": [[["mixed7", 0, 0]]]}, {"class_name": "BatchNormalization", "name": "batchnormalization_73", "config": {"epsilon": 1e-05, "trainable": false, "mode": 0, "beta_regularizer": null, "momentum": 0.99, "name": "batchnormalization_73", "gamma_regularizer": null, "axis": 3}, "inbound_nodes": [[["convolution2d_73", 0, 0]]]}, {"class_name": "Convolution2D", "name": "convolution2d_74", "config": {"dim_ordering": "tf", "activity_regularizer": null, "subsample": [1, 1], "bias": true, "b_constraint": null, "nb_col": 7, "b_regularizer": null, "nb_row": 1, "border_mode": "same", "W_regularizer": null, "trainable": false, "nb_filter": 192, "W_constraint": null, "activation": "relu", "name": "convolution2d_74", "init": "glorot_uniform"}, "inbound_nodes": [[["batchnormalization_73", 0, 0]]]}, {"class_name": "BatchNormalization", "name": "batchnormalization_74", "config": {"epsilon": 1e-05, "trainable": false, "mode": 0, "beta_regularizer": null, "momentum": 0.99, "name": "batchnormalization_74", "gamma_regularizer": null, "axis": 3}, "inbound_nodes": [[["convolution2d_74", 0, 0]]]}, {"class_name": "Convolution2D", "name": "convolution2d_71", "config": {"dim_ordering": "tf", "activity_regularizer": null, "subsample": [1, 1], "bias": true, "b_constraint": null, "nb_col": 1, "b_regularizer": null, "nb_row": 1, "border_mode": "same", "W_regularizer": null, "trainable": false, "nb_filter": 192, "W_constraint": null, "activation": "relu", "name": "convolution2d_71", "init": "glorot_uniform"}, "inbound_nodes": [[["mixed7", 0, 0]]]}, {"class_name": "Convolution2D", "name": "convolution2d_75", "config": {"dim_ordering": "tf", "activity_regularizer": null, "subsample": [1, 1], "bias": true, "b_constraint": null, "nb_col": 1, "b_regularizer": null, "nb_row": 7, "border_mode": "same", "W_regularizer": null, "trainable": false, "nb_filter": 192, "W_constraint": null, "activation": "relu", "name": "convolution2d_75", "init": "glorot_uniform"}, "inbound_nodes": [[["batchnormalization_74", 0, 0]]]}, {"class_name": "BatchNormalization", "name": "batchnormalization_71", "config": {"epsilon": 1e-05, "trainable": false, "mode": 0, "beta_regularizer": null, "momentum": 0.99, "name": "batchnormalization_71", "gamma_regularizer": null, "axis": 3}, "inbound_nodes": [[["convolution2d_71", 0, 0]]]}, {"class_name": "BatchNormalization", "name": "batchnormalization_75", "config": {"epsilon": 1e-05, "trainable": false, "mode": 0, "beta_regularizer": null, "momentum": 0.99, "name": "batchnormalization_75", "gamma_regularizer": null, "axis": 3}, "inbound_nodes": [[["convolution2d_75", 0, 0]]]}, {"class_name": "Convolution2D", "name": "convolution2d_72", "config": {"dim_ordering": "tf", "activity_regularizer": null, "subsample": [2, 2], "bias": true, "b_constraint": null, "nb_col": 3, "b_regularizer": null, "nb_row": 3, "border_mode": "valid", "W_regularizer": null, "trainable": false, "nb_filter": 320, "W_constraint": null, "activation": "relu", "name": "convolution2d_72", "init": "glorot_uniform"}, "inbound_nodes": [[["batchnormalization_71", 0, 0]]]}, {"class_name": "Convolution2D", "name": "convolution2d_76", "config": {"dim_ordering": "tf", "activity_regularizer": null, "subsample": [2, 2], "bias": true, "b_constraint": null, "nb_col": 3, "b_regularizer": null, "nb_row": 3, "border_mode": "valid", "W_regularizer": null, "trainable": false, "nb_filter": 192, "W_constraint": null, "activation": "relu", "name": "convolution2d_76", "init": "glorot_uniform"}, "inbound_nodes": [[["batchnormalization_75", 0, 0]]]}, {"class_name": "BatchNormalization", "name": "batchnormalization_72", "config": {"epsilon": 1e-05, "trainable": false, "mode": 0, "beta_regularizer": null, "momentum": 0.99, "name": "batchnormalization_72", "gamma_regularizer": null, "axis": 3}, "inbound_nodes": [[["convolution2d_72", 0, 0]]]}, {"class_name": "BatchNormalization", "name": "batchnormalization_76", "config": {"epsilon": 1e-05, "trainable": false, "mode": 0, "beta_regularizer": null, "momentum": 0.99, "name": "batchnormalization_76", "gamma_regularizer": null, "axis": 3}, "inbound_nodes": [[["convolution2d_76", 0, 0]]]}, {"class_name": "AveragePooling2D", "name": "averagepooling2d_8", "config": {"dim_ordering": "tf", "trainable": false, "pool_size": [3, 3], "strides": [2, 2], "name": "averagepooling2d_8", "border_mode": "valid"}, "inbound_nodes": [[["mixed7", 0, 0]]]}, {"class_name": "Merge", "name": "mixed8", "config": {"output_shape_type": "raw", "mode_type": "raw", "output_shape": null, "mode": "concat", "output_mask": null, "name": "mixed8", "arguments": {}, "concat_axis": 3, "output_mask_type": "raw", "dot_axes": -1}, "inbound_nodes": [[["batchnormalization_72", 0, 0], ["batchnormalization_76", 0, 0], ["averagepooling2d_8", 0, 0]]]}, {"class_name": "Convolution2D", "name": "convolution2d_81", "config": {"dim_ordering": "tf", "activity_regularizer": null, "subsample": [1, 1], "bias": true, "b_constraint": null, "nb_col": 1, "b_regularizer": null, "nb_row": 1, "border_mode": "same", "W_regularizer": null, "trainable": false, "nb_filter": 448, "W_constraint": null, "activation": "relu", "name": "convolution2d_81", "init": "glorot_uniform"}, "inbound_nodes": [[["mixed8", 0, 0]]]}, {"class_name": "BatchNormalization", "name": "batchnormalization_81", "config": {"epsilon": 1e-05, "trainable": false, "mode": 0, "beta_regularizer": null, "momentum": 0.99, "name": "batchnormalization_81", "gamma_regularizer": null, "axis": 3}, "inbound_nodes": [[["convolution2d_81", 0, 0]]]}, {"class_name": "Convolution2D", "name": "convolution2d_78", "config": {"dim_ordering": "tf", "activity_regularizer": null, "subsample": [1, 1], "bias": true, "b_constraint": null, "nb_col": 1, "b_regularizer": null, "nb_row": 1, "border_mode": "same", "W_regularizer": null, "trainable": false, "nb_filter": 384, "W_constraint": null, "activation": "relu", "name": "convolution2d_78", "init": "glorot_uniform"}, "inbound_nodes": [[["mixed8", 0, 0]]]}, {"class_name": "Convolution2D", "name": "convolution2d_82", "config": {"dim_ordering": "tf", "activity_regularizer": null, "subsample": [1, 1], "bias": true, "b_constraint": null, "nb_col": 3, "b_regularizer": null, "nb_row": 3, "border_mode": "same", "W_regularizer": null, "trainable": false, "nb_filter": 384, "W_constraint": null, "activation": "relu", "name": "convolution2d_82", "init": "glorot_uniform"}, "inbound_nodes": [[["batchnormalization_81", 0, 0]]]}, {"class_name": "BatchNormalization", "name": "batchnormalization_78", "config": {"epsilon": 1e-05, "trainable": false, "mode": 0, "beta_regularizer": null, "momentum": 0.99, "name": "batchnormalization_78", "gamma_regularizer": null, "axis": 3}, "inbound_nodes": [[["convolution2d_78", 0, 0]]]}, {"class_name": "BatchNormalization", "name": "batchnormalization_82", "config": {"epsilon": 1e-05, "trainable": false, "mode": 0, "beta_regularizer": null, "momentum": 0.99, "name": "batchnormalization_82", "gamma_regularizer": null, "axis": 3}, "inbound_nodes": [[["convolution2d_82", 0, 0]]]}, {"class_name": "Convolution2D", "name": "convolution2d_79", "config": {"dim_ordering": "tf", "activity_regularizer": null, "subsample": [1, 1], "bias": true, "b_constraint": null, "nb_col": 3, "b_regularizer": null, "nb_row": 1, "border_mode": "same", "W_regularizer": null, "trainable": false, "nb_filter": 384, "W_constraint": null, "activation": "relu", "name": "convolution2d_79", "init": "glorot_uniform"}, "inbound_nodes": [[["batchnormalization_78", 0, 0]]]}, {"class_name": "Convolution2D", "name": "convolution2d_80", "config": {"dim_ordering": "tf", "activity_regularizer": null, "subsample": [1, 1], "bias": true, "b_constraint": null, "nb_col": 1, "b_regularizer": null, "nb_row": 3, "border_mode": "same", "W_regularizer": null, "trainable": false, "nb_filter": 384, "W_constraint": null, "activation": "relu", "name": "convolution2d_80", "init": "glorot_uniform"}, "inbound_nodes": [[["batchnormalization_78", 0, 0]]]}, {"class_name": "Convolution2D", "name": "convolution2d_83", "config": {"dim_ordering": "tf", "activity_regularizer": null, "subsample": [1, 1], "bias": true, "b_constraint": null, "nb_col": 3, "b_regularizer": null, "nb_row": 1, "border_mode": "same", "W_regularizer": null, "trainable": false, "nb_filter": 384, "W_constraint": null, "activation": "relu", "name": "convolution2d_83", "init": "glorot_uniform"}, "inbound_nodes": [[["batchnormalization_82", 0, 0]]]}, {"class_name": "Convolution2D", "name": "convolution2d_84", "config": {"dim_ordering": "tf", "activity_regularizer": null, "subsample": [1, 1], "bias": true, "b_constraint": null, "nb_col": 1, "b_regularizer": null, "nb_row": 3, "border_mode": "same", "W_regularizer": null, "trainable": false, "nb_filter": 384, "W_constraint": null, "activation": "relu", "name": "convolution2d_84", "init": "glorot_uniform"}, "inbound_nodes": [[["batchnormalization_82", 0, 0]]]}, {"class_name": "AveragePooling2D", "name": "averagepooling2d_9", "config": {"dim_ordering": "tf", "trainable": false, "pool_size": [3, 3], "strides": [1, 1], "name": "averagepooling2d_9", "border_mode": "same"}, "inbound_nodes": [[["mixed8", 0, 0]]]}, {"class_name": "Convolution2D", "name": "convolution2d_77", "config": {"dim_ordering": "tf", "activity_regularizer": null, "subsample": [1, 1], "bias": true, "b_constraint": null, "nb_col": 1, "b_regularizer": null, "nb_row": 1, "border_mode": "same", "W_regularizer": null, "trainable": false, "nb_filter": 320, "W_constraint": null, "activation": "relu", "name": "convolution2d_77", "init": "glorot_uniform"}, "inbound_nodes": [[["mixed8", 0, 0]]]}, {"class_name": "BatchNormalization", "name": "batchnormalization_79", "config": {"epsilon": 1e-05, "trainable": false, "mode": 0, "beta_regularizer": null, "momentum": 0.99, "name": "batchnormalization_79", "gamma_regularizer": null, "axis": 3}, "inbound_nodes": [[["convolution2d_79", 0, 0]]]}, {"class_name": "BatchNormalization", "name": "batchnormalization_80", "config": {"epsilon": 1e-05, "trainable": false, "mode": 0, "beta_regularizer": null, "momentum": 0.99, "name": "batchnormalization_80", "gamma_regularizer": null, "axis": 3}, "inbound_nodes": [[["convolution2d_80", 0, 0]]]}, {"class_name": "BatchNormalization", "name": "batchnormalization_83", "config": {"epsilon": 1e-05, "trainable": false, "mode": 0, "beta_regularizer": null, "momentum": 0.99, "name": "batchnormalization_83", "gamma_regularizer": null, "axis": 3}, "inbound_nodes": [[["convolution2d_83", 0, 0]]]}, {"class_name": "BatchNormalization", "name": "batchnormalization_84", "config": {"epsilon": 1e-05, "trainable": false, "mode": 0, "beta_regularizer": null, "momentum": 0.99, "name": "batchnormalization_84", "gamma_regularizer": null, "axis": 3}, "inbound_nodes": [[["convolution2d_84", 0, 0]]]}, {"class_name": "Convolution2D", "name": "convolution2d_85", "config": {"dim_ordering": "tf", "activity_regularizer": null, "subsample": [1, 1], "bias": true, "b_constraint": null, "nb_col": 1, "b_regularizer": null, "nb_row": 1, "border_mode": "same", "W_regularizer": null, "trainable": false, "nb_filter": 192, "W_constraint": null, "activation": "relu", "name": "convolution2d_85", "init": "glorot_uniform"}, "inbound_nodes": [[["averagepooling2d_9", 0, 0]]]}, {"class_name": "BatchNormalization", "name": "batchnormalization_77", "config": {"epsilon": 1e-05, "trainable": false, "mode": 0, "beta_regularizer": null, "momentum": 0.99, "name": "batchnormalization_77", "gamma_regularizer": null, "axis": 3}, "inbound_nodes": [[["convolution2d_77", 0, 0]]]}, {"class_name": "Merge", "name": "mixed9_0", "config": {"output_shape_type": "raw", "mode_type": "raw", "output_shape": null, "mode": "concat", "output_mask": null, "name": "mixed9_0", "arguments": {}, "concat_axis": 3, "output_mask_type": "raw", "dot_axes": -1}, "inbound_nodes": [[["batchnormalization_79", 0, 0], ["batchnormalization_80", 0, 0]]]}, {"class_name": "Merge", "name": "merge_1", "config": {"output_shape_type": "raw", "mode_type": "raw", "output_shape": null, "mode": "concat", "output_mask": null, "name": "merge_1", "arguments": {}, "concat_axis": 3, "output_mask_type": "raw", "dot_axes": -1}, "inbound_nodes": [[["batchnormalization_83", 0, 0], ["batchnormalization_84", 0, 0]]]}, {"class_name": "BatchNormalization", "name": "batchnormalization_85", "config": {"epsilon": 1e-05, "trainable": false, "mode": 0, "beta_regularizer": null, "momentum": 0.99, "name": "batchnormalization_85", "gamma_regularizer": null, "axis": 3}, "inbound_nodes": [[["convolution2d_85", 0, 0]]]}, {"class_name": "Merge", "name": "mixed9", "config": {"output_shape_type": "raw", "mode_type": "raw", "output_shape": null, "mode": "concat", "output_mask": null, "name": "mixed9", "arguments": {}, "concat_axis": 3, "output_mask_type": "raw", "dot_axes": -1}, "inbound_nodes": [[["batchnormalization_77", 0, 0], ["mixed9_0", 0, 0], ["merge_1", 0, 0], ["batchnormalization_85", 0, 0]]]}, {"class_name": "Convolution2D", "name": "convolution2d_90", "config": {"dim_ordering": "tf", "activity_regularizer": null, "subsample": [1, 1], "bias": true, "b_constraint": null, "nb_col": 1, "b_regularizer": null, "nb_row": 1, "border_mode": "same", "W_regularizer": null, "trainable": false, "nb_filter": 448, "W_constraint": null, "activation": "relu", "name": "convolution2d_90", "init": "glorot_uniform"}, "inbound_nodes": [[["mixed9", 0, 0]]]}, {"class_name": "BatchNormalization", "name": "batchnormalization_90", "config": {"epsilon": 1e-05, "trainable": false, "mode": 0, "beta_regularizer": null, "momentum": 0.99, "name": "batchnormalization_90", "gamma_regularizer": null, "axis": 3}, "inbound_nodes": [[["convolution2d_90", 0, 0]]]}, {"class_name": "Convolution2D", "name": "convolution2d_87", "config": {"dim_ordering": "tf", "activity_regularizer": null, "subsample": [1, 1], "bias": true, "b_constraint": null, "nb_col": 1, "b_regularizer": null, "nb_row": 1, "border_mode": "same", "W_regularizer": null, "trainable": false, "nb_filter": 384, "W_constraint": null, "activation": "relu", "name": "convolution2d_87", "init": "glorot_uniform"}, "inbound_nodes": [[["mixed9", 0, 0]]]}, {"class_name": "Convolution2D", "name": "convolution2d_91", "config": {"dim_ordering": "tf", "activity_regularizer": null, "subsample": [1, 1], "bias": true, "b_constraint": null, "nb_col": 3, "b_regularizer": null, "nb_row": 3, "border_mode": "same", "W_regularizer": null, "trainable": false, "nb_filter": 384, "W_constraint": null, "activation": "relu", "name": "convolution2d_91", "init": "glorot_uniform"}, "inbound_nodes": [[["batchnormalization_90", 0, 0]]]}, {"class_name": "BatchNormalization", "name": "batchnormalization_87", "config": {"epsilon": 1e-05, "trainable": false, "mode": 0, "beta_regularizer": null, "momentum": 0.99, "name": "batchnormalization_87", "gamma_regularizer": null, "axis": 3}, "inbound_nodes": [[["convolution2d_87", 0, 0]]]}, {"class_name": "BatchNormalization", "name": "batchnormalization_91", "config": {"epsilon": 1e-05, "trainable": false, "mode": 0, "beta_regularizer": null, "momentum": 0.99, "name": "batchnormalization_91", "gamma_regularizer": null, "axis": 3}, "inbound_nodes": [[["convolution2d_91", 0, 0]]]}, {"class_name": "Convolution2D", "name": "convolution2d_88", "config": {"dim_ordering": "tf", "activity_regularizer": null, "subsample": [1, 1], "bias": true, "b_constraint": null, "nb_col": 3, "b_regularizer": null, "nb_row": 1, "border_mode": "same", "W_regularizer": null, "trainable": false, "nb_filter": 384, "W_constraint": null, "activation": "relu", "name": "convolution2d_88", "init": "glorot_uniform"}, "inbound_nodes": [[["batchnormalization_87", 0, 0]]]}, {"class_name": "Convolution2D", "name": "convolution2d_89", "config": {"dim_ordering": "tf", "activity_regularizer": null, "subsample": [1, 1], "bias": true, "b_constraint": null, "nb_col": 1, "b_regularizer": null, "nb_row": 3, "border_mode": "same", "W_regularizer": null, "trainable": false, "nb_filter": 384, "W_constraint": null, "activation": "relu", "name": "convolution2d_89", "init": "glorot_uniform"}, "inbound_nodes": [[["batchnormalization_87", 0, 0]]]}, {"class_name": "Convolution2D", "name": "convolution2d_92", "config": {"dim_ordering": "tf", "activity_regularizer": null, "subsample": [1, 1], "bias": true, "b_constraint": null, "nb_col": 3, "b_regularizer": null, "nb_row": 1, "border_mode": "same", "W_regularizer": null, "trainable": false, "nb_filter": 384, "W_constraint": null, "activation": "relu", "name": "convolution2d_92", "init": "glorot_uniform"}, "inbound_nodes": [[["batchnormalization_91", 0, 0]]]}, {"class_name": "Convolution2D", "name": "convolution2d_93", "config": {"dim_ordering": "tf", "activity_regularizer": null, "subsample": [1, 1], "bias": true, "b_constraint": null, "nb_col": 1, "b_regularizer": null, "nb_row": 3, "border_mode": "same", "W_regularizer": null, "trainable": false, "nb_filter": 384, "W_constraint": null, "activation": "relu", "name": "convolution2d_93", "init": "glorot_uniform"}, "inbound_nodes": [[["batchnormalization_91", 0, 0]]]}, {"class_name": "AveragePooling2D", "name": "averagepooling2d_10", "config": {"dim_ordering": "tf", "trainable": false, "pool_size": [3, 3], "strides": [1, 1], "name": "averagepooling2d_10", "border_mode": "same"}, "inbound_nodes": [[["mixed9", 0, 0]]]}, {"class_name": "Convolution2D", "name": "convolution2d_86", "config": {"dim_ordering": "tf", "activity_regularizer": null, "subsample": [1, 1], "bias": true, "b_constraint": null, "nb_col": 1, "b_regularizer": null, "nb_row": 1, "border_mode": "same", "W_regularizer": null, "trainable": false, "nb_filter": 320, "W_constraint": null, "activation": "relu", "name": "convolution2d_86", "init": "glorot_uniform"}, "inbound_nodes": [[["mixed9", 0, 0]]]}, {"class_name": "BatchNormalization", "name": "batchnormalization_88", "config": {"epsilon": 1e-05, "trainable": false, "mode": 0, "beta_regularizer": null, "momentum": 0.99, "name": "batchnormalization_88", "gamma_regularizer": null, "axis": 3}, "inbound_nodes": [[["convolution2d_88", 0, 0]]]}, {"class_name": "BatchNormalization", "name": "batchnormalization_89", "config": {"epsilon": 1e-05, "trainable": false, "mode": 0, "beta_regularizer": null, "momentum": 0.99, "name": "batchnormalization_89", "gamma_regularizer": null, "axis": 3}, "inbound_nodes": [[["convolution2d_89", 0, 0]]]}, {"class_name": "BatchNormalization", "name": "batchnormalization_92", "config": {"epsilon": 1e-05, "trainable": false, "mode": 0, "beta_regularizer": null, "momentum": 0.99, "name": "batchnormalization_92", "gamma_regularizer": null, "axis": 3}, "inbound_nodes": [[["convolution2d_92", 0, 0]]]}, {"class_name": "BatchNormalization", "name": "batchnormalization_93", "config": {"epsilon": 1e-05, "trainable": false, "mode": 0, "beta_regularizer": null, "momentum": 0.99, "name": "batchnormalization_93", "gamma_regularizer": null, "axis": 3}, "inbound_nodes": [[["convolution2d_93", 0, 0]]]}, {"class_name": "Convolution2D", "name": "convolution2d_94", "config": {"dim_ordering": "tf", "activity_regularizer": null, "subsample": [1, 1], "bias": true, "b_constraint": null, "nb_col": 1, "b_regularizer": null, "nb_row": 1, "border_mode": "same", "W_regularizer": null, "trainable": false, "nb_filter": 192, "W_constraint": null, "activation": "relu", "name": "convolution2d_94", "init": "glorot_uniform"}, "inbound_nodes": [[["averagepooling2d_10", 0, 0]]]}, {"class_name": "BatchNormalization", "name": "batchnormalization_86", "config": {"epsilon": 1e-05, "trainable": false, "mode": 0, "beta_regularizer": null, "momentum": 0.99, "name": "batchnormalization_86", "gamma_regularizer": null, "axis": 3}, "inbound_nodes": [[["convolution2d_86", 0, 0]]]}, {"class_name": "Merge", "name": "mixed9_1", "config": {"output_shape_type": "raw", "mode_type": "raw", "output_shape": null, "mode": "concat", "output_mask": null, "name": "mixed9_1", "arguments": {}, "concat_axis": 3, "output_mask_type": "raw", "dot_axes": -1}, "inbound_nodes": [[["batchnormalization_88", 0, 0], ["batchnormalization_89", 0, 0]]]}, {"class_name": "Merge", "name": "merge_2", "config": {"output_shape_type": "raw", "mode_type": "raw", "output_shape": null, "mode": "concat", "output_mask": null, "name": "merge_2", "arguments": {}, "concat_axis": 3, "output_mask_type": "raw", "dot_axes": -1}, "inbound_nodes": [[["batchnormalization_92", 0, 0], ["batchnormalization_93", 0, 0]]]}, {"class_name": "BatchNormalization", "name": "batchnormalization_94", "config": {"epsilon": 1e-05, "trainable": false, "mode": 0, "beta_regularizer": null, "momentum": 0.99, "name": "batchnormalization_94", "gamma_regularizer": null, "axis": 3}, "inbound_nodes": [[["convolution2d_94", 0, 0]]]}, {"class_name": "Merge", "name": "mixed10", "config": {"output_shape_type": "raw", "mode_type": "raw", "output_shape": null, "mode": "concat", "output_mask": null, "name": "mixed10", "arguments": {}, "concat_axis": 3, "output_mask_type": "raw", "dot_axes": -1}, "inbound_nodes": [[["batchnormalization_86", 0, 0], ["mixed9_1", 0, 0], ["merge_2", 0, 0], ["batchnormalization_94", 0, 0]]]}, {"class_name": "GlobalAveragePooling2D", "name": "globalaveragepooling2d_1", "config": {"dim_ordering": "tf", "name": "globalaveragepooling2d_1", "trainable": true}, "inbound_nodes": [[["mixed10", 0, 0]]]}, {"class_name": "Dense", "name": "dense_1", "config": {"activity_regularizer": null, "output_dim": 1024, "bias": true, "b_constraint": null, "b_regularizer": null, "W_regularizer": null, "input_dim": null, "trainable": true, "W_constraint": null, "activation": "relu", "name": "dense_1", "init": "glorot_uniform"}, "inbound_nodes": [[["globalaveragepooling2d_1", 0, 0]]]}, {"class_name": "Dense", "name": "dense_2", "config": {"activity_regularizer": null, "output_dim": 1, "bias": true, "b_constraint": null, "b_regularizer": null, "W_regularizer": null, "input_dim": null, "trainable": true, "W_constraint": null, "activation": "linear", "name": "dense_2", "init": "glorot_uniform"}, "inbound_nodes": [[["dense_1", 0, 0]]]}]}, "keras_version": "1.1.2"}