{"config": {"layers": [{"config": {"input_dtype": "float32", "batch_input_shape": [null, null, null, 3], "name": "input_1", "sparse": false}, "inbound_nodes": [], "name": "input_1", "class_name": "InputLayer"}, {"config": {"activity_regularizer": null, "border_mode": "valid", "bias": true, "nb_filter": 32, "nb_col": 3, "init": "glorot_uniform", "subsample": [2, 2], "activation": "relu", "nb_row": 3, "W_constraint": null, "name": "convolution2d_1", "b_regularizer": null, "dim_ordering": "tf", "W_regularizer": null, "b_constraint": null, "trainable": false}, "inbound_nodes": [[["input_1", 0, 0]]], "name": "convolution2d_1", "class_name": "Convolution2D"}, {"config": {"beta_regularizer": null, "gamma_regularizer": null, "name": "batchnormalization_1", "trainable": false, "momentum": 0.99, "epsilon": 1e-05, "axis": 3, "mode": 0}, "inbound_nodes": [[["convolution2d_1", 0, 0]]], "name": "batchnormalization_1", "class_name": "BatchNormalization"}, {"config": {"activity_regularizer": null, "border_mode": "valid", "bias": true, "nb_filter": 32, "nb_col": 3, "init": "glorot_uniform", "subsample": [1, 1], "activation": "relu", "nb_row": 3, "W_constraint": null, "name": "convolution2d_2", "b_regularizer": null, "dim_ordering": "tf", "W_regularizer": null, "b_constraint": null, "trainable": false}, "inbound_nodes": [[["batchnormalization_1", 0, 0]]], "name": "convolution2d_2", "class_name": "Convolution2D"}, {"config": {"beta_regularizer": null, "gamma_regularizer": null, "name": "batchnormalization_2", "trainable": false, "momentum": 0.99, "epsilon": 1e-05, "axis": 3, "mode": 0}, "inbound_nodes": [[["convolution2d_2", 0, 0]]], "name": "batchnormalization_2", "class_name": "BatchNormalization"}, {"config": {"activity_regularizer": null, "border_mode": "same", "bias": true, "nb_filter": 64, "nb_col": 3, "init": "glorot_uniform", "subsample": [1, 1], "activation": "relu", "nb_row": 3, "W_constraint": null, "name": "convolution2d_3", "b_regularizer": null, "dim_ordering": "tf", "W_regularizer": null, "b_constraint": null, "trainable": false}, "inbound_nodes": [[["batchnormalization_2", 0, 0]]], "name": "convolution2d_3", "class_name": "Convolution2D"}, {"config": {"beta_regularizer": null, "gamma_regularizer": null, "name": "batchnormalization_3", "trainable": false, "momentum": 0.99, "epsilon": 1e-05, "axis": 3, "mode": 0}, "inbound_nodes": [[["convolution2d_3", 0, 0]]], "name": "batchnormalization_3", "class_name": "BatchNormalization"}, {"config": {"pool_size": [3, 3], "border_mode": "valid", "name": "maxpooling2d_1", "dim_ordering": "tf", "trainable": false, "strides": [2, 2]}, "inbound_nodes": [[["batchnormalization_3", 0, 0]]], "name": "maxpooling2d_1", "class_name": "MaxPooling2D"}, {"config": {"activity_regularizer": null, "border_mode": "valid", "bias": true, "nb_filter": 80, "nb_col": 1, "init": "glorot_uniform", "subsample": [1, 1], "activation": "relu", "nb_row": 1, "W_constraint": null, "name": "convolution2d_4", "b_regularizer": null, "dim_ordering": "tf", "W_regularizer": null, "b_constraint": null, "trainable": false}, "inbound_nodes": [[["maxpooling2d_1", 0, 0]]], "name": "convolution2d_4", "class_name": "Convolution2D"}, {"config": {"beta_regularizer": null, "gamma_regularizer": null, "name": "batchnormalization_4", "trainable": false, "momentum": 0.99, "epsilon": 1e-05, "axis": 3, "mode": 0}, "inbound_nodes": [[["convolution2d_4", 0, 0]]], "name": "batchnormalization_4", "class_name": "BatchNormalization"}, {"config": {"activity_regularizer": null, "border_mode": "valid", "bias": true, "nb_filter": 192, "nb_col": 3, "init": "glorot_uniform", "subsample": [1, 1], "activation": "relu", "nb_row": 3, "W_constraint": null, "name": "convolution2d_5", "b_regularizer": null, "dim_ordering": "tf", "W_regularizer": null, "b_constraint": null, "trainable": false}, "inbound_nodes": [[["batchnormalization_4", 0, 0]]], "name": "convolution2d_5", "class_name": "Convolution2D"}, {"config": {"beta_regularizer": null, "gamma_regularizer": null, "name": "batchnormalization_5", "trainable": false, "momentum": 0.99, "epsilon": 1e-05, "axis": 3, "mode": 0}, "inbound_nodes": [[["convolution2d_5", 0, 0]]], "name": "batchnormalization_5", "class_name": "BatchNormalization"}, {"config": {"pool_size": [3, 3], "border_mode": "valid", "name": "maxpooling2d_2", "dim_ordering": "tf", "trainable": false, "strides": [2, 2]}, "inbound_nodes": [[["batchnormalization_5", 0, 0]]], "name": "maxpooling2d_2", "class_name": "MaxPooling2D"}, {"config": {"activity_regularizer": null, "border_mode": "same", "bias": true, "nb_filter": 64, "nb_col": 1, "init": "glorot_uniform", "subsample": [1, 1], "activation": "relu", "nb_row": 1, "W_constraint": null, "name": "convolution2d_9", "b_regularizer": null, "dim_ordering": "tf", "W_regularizer": null, "b_constraint": null, "trainable": false}, "inbound_nodes": [[["maxpooling2d_2", 0, 0]]], "name": "convolution2d_9", "class_name": "Convolution2D"}, {"config": {"beta_regularizer": null, "gamma_regularizer": null, "name": "batchnormalization_9", "trainable": false, "momentum": 0.99, "epsilon": 1e-05, "axis": 3, "mode": 0}, "inbound_nodes": [[["convolution2d_9", 0, 0]]], "name": "batchnormalization_9", "class_name": "BatchNormalization"}, {"config": {"activity_regularizer": null, "border_mode": "same", "bias": true, "nb_filter": 48, "nb_col": 1, "init": "glorot_uniform", "subsample": [1, 1], "activation": "relu", "nb_row": 1, "W_constraint": null, "name": "convolution2d_7", "b_regularizer": null, "dim_ordering": "tf", "W_regularizer": null, "b_constraint": null, "trainable": false}, "inbound_nodes": [[["maxpooling2d_2", 0, 0]]], "name": "convolution2d_7", "class_name": "Convolution2D"}, {"config": {"activity_regularizer": null, "border_mode": "same", "bias": true, "nb_filter": 96, "nb_col": 3, "init": "glorot_uniform", "subsample": [1, 1], "activation": "relu", "nb_row": 3, "W_constraint": null, "name": "convolution2d_10", "b_regularizer": null, "dim_ordering": "tf", "W_regularizer": null, "b_constraint": null, "trainable": false}, "inbound_nodes": [[["batchnormalization_9", 0, 0]]], "name": "convolution2d_10", "class_name": "Convolution2D"}, {"config": {"beta_regularizer": null, "gamma_regularizer": null, "name": "batchnormalization_7", "trainable": false, "momentum": 0.99, "epsilon": 1e-05, "axis": 3, "mode": 0}, "inbound_nodes": [[["convolution2d_7", 0, 0]]], "name": "batchnormalization_7", "class_name": "BatchNormalization"}, {"config": {"beta_regularizer": null, "gamma_regularizer": null, "name": "batchnormalization_10", "trainable": false, "momentum": 0.99, "epsilon": 1e-05, "axis": 3, "mode": 0}, "inbound_nodes": [[["convolution2d_10", 0, 0]]], "name": "batchnormalization_10", "class_name": "BatchNormalization"}, {"config": {"pool_size": [3, 3], "border_mode": "same", "name": "averagepooling2d_1", "dim_ordering": "tf", "trainable": false, "strides": [1, 1]}, "inbound_nodes": [[["maxpooling2d_2", 0, 0]]], "name": "averagepooling2d_1", "class_name": "AveragePooling2D"}, {"config": {"activity_regularizer": null, "border_mode": "same", "bias": true, "nb_filter": 64, "nb_col": 1, "init": "glorot_uniform", "subsample": [1, 1], "activation": "relu", "nb_row": 1, "W_constraint": null, "name": "convolution2d_6", "b_regularizer": null, "dim_ordering": "tf", "W_regularizer": null, "b_constraint": null, "trainable": false}, "inbound_nodes": [[["maxpooling2d_2", 0, 0]]], "name": "convolution2d_6", "class_name": "Convolution2D"}, {"config": {"activity_regularizer": null, "border_mode": "same", "bias": true, "nb_filter": 64, "nb_col": 5, "init": "glorot_uniform", "subsample": [1, 1], "activation": "relu", "nb_row": 5, "W_constraint": null, "name": "convolution2d_8", "b_regularizer": null, "dim_ordering": "tf", "W_regularizer": null, "b_constraint": null, "trainable": false}, "inbound_nodes": [[["batchnormalization_7", 0, 0]]], "name": "convolution2d_8", "class_name": "Convolution2D"}, {"config": {"activity_regularizer": null, "border_mode": "same", "bias": true, "nb_filter": 96, "nb_col": 3, "init": "glorot_uniform", "subsample": [1, 1], "activation": "relu", "nb_row": 3, "W_constraint": null, "name": "convolution2d_11", "b_regularizer": null, "dim_ordering": "tf", "W_regularizer": null, "b_constraint": null, "trainable": false}, "inbound_nodes": [[["batchnormalization_10", 0, 0]]], "name": "convolution2d_11", "class_name": "Convolution2D"}, {"config": {"activity_regularizer": null, "border_mode": "same", "bias": true, "nb_filter": 32, "nb_col": 1, "init": "glorot_uniform", "subsample": [1, 1], "activation": "relu", "nb_row": 1, "W_constraint": null, "name": "convolution2d_12", "b_regularizer": null, "dim_ordering": "tf", "W_regularizer": null, "b_constraint": null, "trainable": false}, "inbound_nodes": [[["averagepooling2d_1", 0, 0]]], "name": "convolution2d_12", "class_name": "Convolution2D"}, {"config": {"beta_regularizer": null, "gamma_regularizer": null, "name": "batchnormalization_6", "trainable": false, "momentum": 0.99, "epsilon": 1e-05, "axis": 3, "mode": 0}, "inbound_nodes": [[["convolution2d_6", 0, 0]]], "name": "batchnormalization_6", "class_name": "BatchNormalization"}, {"config": {"beta_regularizer": null, "gamma_regularizer": null, "name": "batchnormalization_8", "trainable": false, "momentum": 0.99, "epsilon": 1e-05, "axis": 3, "mode": 0}, "inbound_nodes": [[["convolution2d_8", 0, 0]]], "name": "batchnormalization_8", "class_name": "BatchNormalization"}, {"config": {"beta_regularizer": null, "gamma_regularizer": null, "name": "batchnormalization_11", "trainable": false, "momentum": 0.99, "epsilon": 1e-05, "axis": 3, "mode": 0}, "inbound_nodes": [[["convolution2d_11", 0, 0]]], "name": "batchnormalization_11", "class_name": "BatchNormalization"}, {"config": {"beta_regularizer": null, "gamma_regularizer": null, "name": "batchnormalization_12", "trainable": false, "momentum": 0.99, "epsilon": 1e-05, "axis": 3, "mode": 0}, "inbound_nodes": [[["convolution2d_12", 0, 0]]], "name": "batchnormalization_12", "class_name": "BatchNormalization"}, {"config": {"name": "mixed0", "output_shape": null, "output_mask": null, "output_mask_type": "raw", "arguments": {}, "concat_axis": 3, "mode_type": "raw", "dot_axes": -1, "output_shape_type": "raw", "mode": "concat"}, "inbound_nodes": [[["batchnormalization_6", 0, 0], ["batchnormalization_8", 0, 0], ["batchnormalization_11", 0, 0], ["batchnormalization_12", 0, 0]]], "name": "mixed0", "class_name": "Merge"}, {"config": {"activity_regularizer": null, "border_mode": "same", "bias": true, "nb_filter": 64, "nb_col": 1, "init": "glorot_uniform", "subsample": [1, 1], "activation": "relu", "nb_row": 1, "W_constraint": null, "name": "convolution2d_16", "b_regularizer": null, "dim_ordering": "tf", "W_regularizer": null, "b_constraint": null, "trainable": false}, "inbound_nodes": [[["mixed0", 0, 0]]], "name": "convolution2d_16", "class_name": "Convolution2D"}, {"config": {"beta_regularizer": null, "gamma_regularizer": null, "name": "batchnormalization_16", "trainable": false, "momentum": 0.99, "epsilon": 1e-05, "axis": 3, "mode": 0}, "inbound_nodes": [[["convolution2d_16", 0, 0]]], "name": "batchnormalization_16", "class_name": "BatchNormalization"}, {"config": {"activity_regularizer": null, "border_mode": "same", "bias": true, "nb_filter": 48, "nb_col": 1, "init": "glorot_uniform", "subsample": [1, 1], "activation": "relu", "nb_row": 1, "W_constraint": null, "name": "convolution2d_14", "b_regularizer": null, "dim_ordering": "tf", "W_regularizer": null, "b_constraint": null, "trainable": false}, "inbound_nodes": [[["mixed0", 0, 0]]], "name": "convolution2d_14", "class_name": "Convolution2D"}, {"config": {"activity_regularizer": null, "border_mode": "same", "bias": true, "nb_filter": 96, "nb_col": 3, "init": "glorot_uniform", "subsample": [1, 1], "activation": "relu", "nb_row": 3, "W_constraint": null, "name": "convolution2d_17", "b_regularizer": null, "dim_ordering": "tf", "W_regularizer": null, "b_constraint": null, "trainable": false}, "inbound_nodes": [[["batchnormalization_16", 0, 0]]], "name": "convolution2d_17", "class_name": "Convolution2D"}, {"config": {"beta_regularizer": null, "gamma_regularizer": null, "name": "batchnormalization_14", "trainable": false, "momentum": 0.99, "epsilon": 1e-05, "axis": 3, "mode": 0}, "inbound_nodes": [[["convolution2d_14", 0, 0]]], "name": "batchnormalization_14", "class_name": "BatchNormalization"}, {"config": {"beta_regularizer": null, "gamma_regularizer": null, "name": "batchnormalization_17", "trainable": false, "momentum": 0.99, "epsilon": 1e-05, "axis": 3, "mode": 0}, "inbound_nodes": [[["convolution2d_17", 0, 0]]], "name": "batchnormalization_17", "class_name": "BatchNormalization"}, {"config": {"pool_size": [3, 3], "border_mode": "same", "name": "averagepooling2d_2", "dim_ordering": "tf", "trainable": false, "strides": [1, 1]}, "inbound_nodes": [[["mixed0", 0, 0]]], "name": "averagepooling2d_2", "class_name": "AveragePooling2D"}, {"config": {"activity_regularizer": null, "border_mode": "same", "bias": true, "nb_filter": 64, "nb_col": 1, "init": "glorot_uniform", "subsample": [1, 1], "activation": "relu", "nb_row": 1, "W_constraint": null, "name": "convolution2d_13", "b_regularizer": null, "dim_ordering": "tf", "W_regularizer": null, "b_constraint": null, "trainable": false}, "inbound_nodes": [[["mixed0", 0, 0]]], "name": "convolution2d_13", "class_name": "Convolution2D"}, {"config": {"activity_regularizer": null, "border_mode": "same", "bias": true, "nb_filter": 64, "nb_col": 5, "init": "glorot_uniform", "subsample": [1, 1], "activation": "relu", "nb_row": 5, "W_constraint": null, "name": "convolution2d_15", "b_regularizer": null, "dim_ordering": "tf", "W_regularizer": null, "b_constraint": null, "trainable": false}, "inbound_nodes": [[["batchnormalization_14", 0, 0]]], "name": "convolution2d_15", "class_name": "Convolution2D"}, {"config": {"activity_regularizer": null, "border_mode": "same", "bias": true, "nb_filter": 96, "nb_col": 3, "init": "glorot_uniform", "subsample": [1, 1], "activation": "relu", "nb_row": 3, "W_constraint": null, "name": "convolution2d_18", "b_regularizer": null, "dim_ordering": "tf", "W_regularizer": null, "b_constraint": null, "trainable": false}, "inbound_nodes": [[["batchnormalization_17", 0, 0]]], "name": "convolution2d_18", "class_name": "Convolution2D"}, {"config": {"activity_regularizer": null, "border_mode": "same", "bias": true, "nb_filter": 32, "nb_col": 1, "init": "glorot_uniform", "subsample": [1, 1], "activation": "relu", "nb_row": 1, "W_constraint": null, "name": "convolution2d_19", "b_regularizer": null, "dim_ordering": "tf", "W_regularizer": null, "b_constraint": null, "trainable": false}, "inbound_nodes": [[["averagepooling2d_2", 0, 0]]], "name": "convolution2d_19", "class_name": "Convolution2D"}, {"config": {"beta_regularizer": null, "gamma_regularizer": null, "name": "batchnormalization_13", "trainable": false, "momentum": 0.99, "epsilon": 1e-05, "axis": 3, "mode": 0}, "inbound_nodes": [[["convolution2d_13", 0, 0]]], "name": "batchnormalization_13", "class_name": "BatchNormalization"}, {"config": {"beta_regularizer": null, "gamma_regularizer": null, "name": "batchnormalization_15", "trainable": false, "momentum": 0.99, "epsilon": 1e-05, "axis": 3, "mode": 0}, "inbound_nodes": [[["convolution2d_15", 0, 0]]], "name": "batchnormalization_15", "class_name": "BatchNormalization"}, {"config": {"beta_regularizer": null, "gamma_regularizer": null, "name": "batchnormalization_18", "trainable": false, "momentum": 0.99, "epsilon": 1e-05, "axis": 3, "mode": 0}, "inbound_nodes": [[["convolution2d_18", 0, 0]]], "name": "batchnormalization_18", "class_name": "BatchNormalization"}, {"config": {"beta_regularizer": null, "gamma_regularizer": null, "name": "batchnormalization_19", "trainable": false, "momentum": 0.99, "epsilon": 1e-05, "axis": 3, "mode": 0}, "inbound_nodes": [[["convolution2d_19", 0, 0]]], "name": "batchnormalization_19", "class_name": "BatchNormalization"}, {"config": {"name": "mixed1", "output_shape": null, "output_mask": null, "output_mask_type": "raw", "arguments": {}, "concat_axis": 3, "mode_type": "raw", "dot_axes": -1, "output_shape_type": "raw", "mode": "concat"}, "inbound_nodes": [[["batchnormalization_13", 0, 0], ["batchnormalization_15", 0, 0], ["batchnormalization_18", 0, 0], ["batchnormalization_19", 0, 0]]], "name": "mixed1", "class_name": "Merge"}, {"config": {"activity_regularizer": null, "border_mode": "same", "bias": true, "nb_filter": 64, "nb_col": 1, "init": "glorot_uniform", "subsample": [1, 1], "activation": "relu", "nb_row": 1, "W_constraint": null, "name": "convolution2d_23", "b_regularizer": null, "dim_ordering": "tf", "W_regularizer": null, "b_constraint": null, "trainable": false}, "inbound_nodes": [[["mixed1", 0, 0]]], "name": "convolution2d_23", "class_name": "Convolution2D"}, {"config": {"beta_regularizer": null, "gamma_regularizer": null, "name": "batchnormalization_23", "trainable": false, "momentum": 0.99, "epsilon": 1e-05, "axis": 3, "mode": 0}, "inbound_nodes": [[["convolution2d_23", 0, 0]]], "name": "batchnormalization_23", "class_name": "BatchNormalization"}, {"config": {"activity_regularizer": null, "border_mode": "same", "bias": true, "nb_filter": 48, "nb_col": 1, "init": "glorot_uniform", "subsample": [1, 1], "activation": "relu", "nb_row": 1, "W_constraint": null, "name": "convolution2d_21", "b_regularizer": null, "dim_ordering": "tf", "W_regularizer": null, "b_constraint": null, "trainable": false}, "inbound_nodes": [[["mixed1", 0, 0]]], "name": "convolution2d_21", "class_name": "Convolution2D"}, {"config": {"activity_regularizer": null, "border_mode": "same", "bias": true, "nb_filter": 96, "nb_col": 3, "init": "glorot_uniform", "subsample": [1, 1], "activation": "relu", "nb_row": 3, "W_constraint": null, "name": "convolution2d_24", "b_regularizer": null, "dim_ordering": "tf", "W_regularizer": null, "b_constraint": null, "trainable": false}, "inbound_nodes": [[["batchnormalization_23", 0, 0]]], "name": "convolution2d_24", "class_name": "Convolution2D"}, {"config": {"beta_regularizer": null, "gamma_regularizer": null, "name": "batchnormalization_21", "trainable": false, "momentum": 0.99, "epsilon": 1e-05, "axis": 3, "mode": 0}, "inbound_nodes": [[["convolution2d_21", 0, 0]]], "name": "batchnormalization_21", "class_name": "BatchNormalization"}, {"config": {"beta_regularizer": null, "gamma_regularizer": null, "name": "batchnormalization_24", "trainable": false, "momentum": 0.99, "epsilon": 1e-05, "axis": 3, "mode": 0}, "inbound_nodes": [[["convolution2d_24", 0, 0]]], "name": "batchnormalization_24", "class_name": "BatchNormalization"}, {"config": {"pool_size": [3, 3], "border_mode": "same", "name": "averagepooling2d_3", "dim_ordering": "tf", "trainable": false, "strides": [1, 1]}, "inbound_nodes": [[["mixed1", 0, 0]]], "name": "averagepooling2d_3", "class_name": "AveragePooling2D"}, {"config": {"activity_regularizer": null, "border_mode": "same", "bias": true, "nb_filter": 64, "nb_col": 1, "init": "glorot_uniform", "subsample": [1, 1], "activation": "relu", "nb_row": 1, "W_constraint": null, "name": "convolution2d_20", "b_regularizer": null, "dim_ordering": "tf", "W_regularizer": null, "b_constraint": null, "trainable": false}, "inbound_nodes": [[["mixed1", 0, 0]]], "name": "convolution2d_20", "class_name": "Convolution2D"}, {"config": {"activity_regularizer": null, "border_mode": "same", "bias": true, "nb_filter": 64, "nb_col": 5, "init": "glorot_uniform", "subsample": [1, 1], "activation": "relu", "nb_row": 5, "W_constraint": null, "name": "convolution2d_22", "b_regularizer": null, "dim_ordering": "tf", "W_regularizer": null, "b_constraint": null, "trainable": false}, "inbound_nodes": [[["batchnormalization_21", 0, 0]]], "name": "convolution2d_22", "class_name": "Convolution2D"}, {"config": {"activity_regularizer": null, "border_mode": "same", "bias": true, "nb_filter": 96, "nb_col": 3, "init": "glorot_uniform", "subsample": [1, 1], "activation": "relu", "nb_row": 3, "W_constraint": null, "name": "convolution2d_25", "b_regularizer": null, "dim_ordering": "tf", "W_regularizer": null, "b_constraint": null, "trainable": false}, "inbound_nodes": [[["batchnormalization_24", 0, 0]]], "name": "convolution2d_25", "class_name": "Convolution2D"}, {"config": {"activity_regularizer": null, "border_mode": "same", "bias": true, "nb_filter": 32, "nb_col": 1, "init": "glorot_uniform", "subsample": [1, 1], "activation": "relu", "nb_row": 1, "W_constraint": null, "name": "convolution2d_26", "b_regularizer": null, "dim_ordering": "tf", "W_regularizer": null, "b_constraint": null, "trainable": false}, "inbound_nodes": [[["averagepooling2d_3", 0, 0]]], "name": "convolution2d_26", "class_name": "Convolution2D"}, {"config": {"beta_regularizer": null, "gamma_regularizer": null, "name": "batchnormalization_20", "trainable": false, "momentum": 0.99, "epsilon": 1e-05, "axis": 3, "mode": 0}, "inbound_nodes": [[["convolution2d_20", 0, 0]]], "name": "batchnormalization_20", "class_name": "BatchNormalization"}, {"config": {"beta_regularizer": null, "gamma_regularizer": null, "name": "batchnormalization_22", "trainable": false, "momentum": 0.99, "epsilon": 1e-05, "axis": 3, "mode": 0}, "inbound_nodes": [[["convolution2d_22", 0, 0]]], "name": "batchnormalization_22", "class_name": "BatchNormalization"}, {"config": {"beta_regularizer": null, "gamma_regularizer": null, "name": "batchnormalization_25", "trainable": false, "momentum": 0.99, "epsilon": 1e-05, "axis": 3, "mode": 0}, "inbound_nodes": [[["convolution2d_25", 0, 0]]], "name": "batchnormalization_25", "class_name": "BatchNormalization"}, {"config": {"beta_regularizer": null, "gamma_regularizer": null, "name": "batchnormalization_26", "trainable": false, "momentum": 0.99, "epsilon": 1e-05, "axis": 3, "mode": 0}, "inbound_nodes": [[["convolution2d_26", 0, 0]]], "name": "batchnormalization_26", "class_name": "BatchNormalization"}, {"config": {"name": "mixed2", "output_shape": null, "output_mask": null, "output_mask_type": "raw", "arguments": {}, "concat_axis": 3, "mode_type": "raw", "dot_axes": -1, "output_shape_type": "raw", "mode": "concat"}, "inbound_nodes": [[["batchnormalization_20", 0, 0], ["batchnormalization_22", 0, 0], ["batchnormalization_25", 0, 0], ["batchnormalization_26", 0, 0]]], "name": "mixed2", "class_name": "Merge"}, {"config": {"activity_regularizer": null, "border_mode": "same", "bias": true, "nb_filter": 64, "nb_col": 1, "init": "glorot_uniform", "subsample": [1, 1], "activation": "relu", "nb_row": 1, "W_constraint": null, "name": "convolution2d_28", "b_regularizer": null, "dim_ordering": "tf", "W_regularizer": null, "b_constraint": null, "trainable": false}, "inbound_nodes": [[["mixed2", 0, 0]]], "name": "convolution2d_28", "class_name": "Convolution2D"}, {"config": {"beta_regularizer": null, "gamma_regularizer": null, "name": "batchnormalization_28", "trainable": false, "momentum": 0.99, "epsilon": 1e-05, "axis": 3, "mode": 0}, "inbound_nodes": [[["convolution2d_28", 0, 0]]], "name": "batchnormalization_28", "class_name": "BatchNormalization"}, {"config": {"activity_regularizer": null, "border_mode": "same", "bias": true, "nb_filter": 96, "nb_col": 3, "init": "glorot_uniform", "subsample": [1, 1], "activation": "relu", "nb_row": 3, "W_constraint": null, "name": "convolution2d_29", "b_regularizer": null, "dim_ordering": "tf", "W_regularizer": null, "b_constraint": null, "trainable": false}, "inbound_nodes": [[["batchnormalization_28", 0, 0]]], "name": "convolution2d_29", "class_name": "Convolution2D"}, {"config": {"beta_regularizer": null, "gamma_regularizer": null, "name": "batchnormalization_29", "trainable": false, "momentum": 0.99, "epsilon": 1e-05, "axis": 3, "mode": 0}, "inbound_nodes": [[["convolution2d_29", 0, 0]]], "name": "batchnormalization_29", "class_name": "BatchNormalization"}, {"config": {"activity_regularizer": null, "border_mode": "valid", "bias": true, "nb_filter": 384, "nb_col": 3, "init": "glorot_uniform", "subsample": [2, 2], "activation": "relu", "nb_row": 3, "W_constraint": null, "name": "convolution2d_27", "b_regularizer": null, "dim_ordering": "tf", "W_regularizer": null, "b_constraint": null, "trainable": false}, "inbound_nodes": [[["mixed2", 0, 0]]], "name": "convolution2d_27", "class_name": "Convolution2D"}, {"config": {"activity_regularizer": null, "border_mode": "valid", "bias": true, "nb_filter": 96, "nb_col": 3, "init": "glorot_uniform", "subsample": [2, 2], "activation": "relu", "nb_row": 3, "W_constraint": null, "name": "convolution2d_30", "b_regularizer": null, "dim_ordering": "tf", "W_regularizer": null, "b_constraint": null, "trainable": false}, "inbound_nodes": [[["batchnormalization_29", 0, 0]]], "name": "convolution2d_30", "class_name": "Convolution2D"}, {"config": {"beta_regularizer": null, "gamma_regularizer": null, "name": "batchnormalization_27", "trainable": false, "momentum": 0.99, "epsilon": 1e-05, "axis": 3, "mode": 0}, "inbound_nodes": [[["convolution2d_27", 0, 0]]], "name": "batchnormalization_27", "class_name": "BatchNormalization"}, {"config": {"beta_regularizer": null, "gamma_regularizer": null, "name": "batchnormalization_30", "trainable": false, "momentum": 0.99, "epsilon": 1e-05, "axis": 3, "mode": 0}, "inbound_nodes": [[["convolution2d_30", 0, 0]]], "name": "batchnormalization_30", "class_name": "BatchNormalization"}, {"config": {"pool_size": [3, 3], "border_mode": "valid", "name": "maxpooling2d_3", "dim_ordering": "tf", "trainable": false, "strides": [2, 2]}, "inbound_nodes": [[["mixed2", 0, 0]]], "name": "maxpooling2d_3", "class_name": "MaxPooling2D"}, {"config": {"name": "mixed3", "output_shape": null, "output_mask": null, "output_mask_type": "raw", "arguments": {}, "concat_axis": 3, "mode_type": "raw", "dot_axes": -1, "output_shape_type": "raw", "mode": "concat"}, "inbound_nodes": [[["batchnormalization_27", 0, 0], ["batchnormalization_30", 0, 0], ["maxpooling2d_3", 0, 0]]], "name": "mixed3", "class_name": "Merge"}, {"config": {"activity_regularizer": null, "border_mode": "same", "bias": true, "nb_filter": 128, "nb_col": 1, "init": "glorot_uniform", "subsample": [1, 1], "activation": "relu", "nb_row": 1, "W_constraint": null, "name": "convolution2d_35", "b_regularizer": null, "dim_ordering": "tf", "W_regularizer": null, "b_constraint": null, "trainable": false}, "inbound_nodes": [[["mixed3", 0, 0]]], "name": "convolution2d_35", "class_name": "Convolution2D"}, {"config": {"beta_regularizer": null, "gamma_regularizer": null, "name": "batchnormalization_35", "trainable": false, "momentum": 0.99, "epsilon": 1e-05, "axis": 3, "mode": 0}, "inbound_nodes": [[["convolution2d_35", 0, 0]]], "name": "batchnormalization_35", "class_name": "BatchNormalization"}, {"config": {"activity_regularizer": null, "border_mode": "same", "bias": true, "nb_filter": 128, "nb_col": 1, "init": "glorot_uniform", "subsample": [1, 1], "activation": "relu", "nb_row": 7, "W_constraint": null, "name": "convolution2d_36", "b_regularizer": null, "dim_ordering": "tf", "W_regularizer": null, "b_constraint": null, "trainable": false}, "inbound_nodes": [[["batchnormalization_35", 0, 0]]], "name": "convolution2d_36", "class_name": "Convolution2D"}, {"config": {"beta_regularizer": null, "gamma_regularizer": null, "name": "batchnormalization_36", "trainable": false, "momentum": 0.99, "epsilon": 1e-05, "axis": 3, "mode": 0}, "inbound_nodes": [[["convolution2d_36", 0, 0]]], "name": "batchnormalization_36", "class_name": "BatchNormalization"}, {"config": {"activity_regularizer": null, "border_mode": "same", "bias": true, "nb_filter": 128, "nb_col": 1, "init": "glorot_uniform", "subsample": [1, 1], "activation": "relu", "nb_row": 1, "W_constraint": null, "name": "convolution2d_32", "b_regularizer": null, "dim_ordering": "tf", "W_regularizer": null, "b_constraint": null, "trainable": false}, "inbound_nodes": [[["mixed3", 0, 0]]], "name": "convolution2d_32", "class_name": "Convolution2D"}, {"config": {"activity_regularizer": null, "border_mode": "same", "bias": true, "nb_filter": 128, "nb_col": 7, "init": "glorot_uniform", "subsample": [1, 1], "activation": "relu", "nb_row": 1, "W_constraint": null, "name": "convolution2d_37", "b_regularizer": null, "dim_ordering": "tf", "W_regularizer": null, "b_constraint": null, "trainable": false}, "inbound_nodes": [[["batchnormalization_36", 0, 0]]], "name": "convolution2d_37", "class_name": "Convolution2D"}, {"config": {"beta_regularizer": null, "gamma_regularizer": null, "name": "batchnormalization_32", "trainable": false, "momentum": 0.99, "epsilon": 1e-05, "axis": 3, "mode": 0}, "inbound_nodes": [[["convolution2d_32", 0, 0]]], "name": "batchnormalization_32", "class_name": "BatchNormalization"}, {"config": {"beta_regularizer": null, "gamma_regularizer": null, "name": "batchnormalization_37", "trainable": false, "momentum": 0.99, "epsilon": 1e-05, "axis": 3, "mode": 0}, "inbound_nodes": [[["convolution2d_37", 0, 0]]], "name": "batchnormalization_37", "class_name": "BatchNormalization"}, {"config": {"activity_regularizer": null, "border_mode": "same", "bias": true, "nb_filter": 128, "nb_col": 7, "init": "glorot_uniform", "subsample": [1, 1], "activation": "relu", "nb_row": 1, "W_constraint": null, "name": "convolution2d_33", "b_regularizer": null, "dim_ordering": "tf", "W_regularizer": null, "b_constraint": null, "trainable": false}, "inbound_nodes": [[["batchnormalization_32", 0, 0]]], "name": "convolution2d_33", "class_name": "Convolution2D"}, {"config": {"activity_regularizer": null, "border_mode": "same", "bias": true, "nb_filter": 128, "nb_col": 1, "init": "glorot_uniform", "subsample": [1, 1], "activation": "relu", "nb_row": 7, "W_constraint": null, "name": "convolution2d_38", "b_regularizer": null, "dim_ordering": "tf", "W_regularizer": null, "b_constraint": null, "trainable": false}, "inbound_nodes": [[["batchnormalization_37", 0, 0]]], "name": "convolution2d_38", "class_name": "Convolution2D"}, {"config": {"beta_regularizer": null, "gamma_regularizer": null, "name": "batchnormalization_33", "trainable": false, "momentum": 0.99, "epsilon": 1e-05, "axis": 3, "mode": 0}, "inbound_nodes": [[["convolution2d_33", 0, 0]]], "name": "batchnormalization_33", "class_name": "BatchNormalization"}, {"config": {"beta_regularizer": null, "gamma_regularizer": null, "name": "batchnormalization_38", "trainable": false, "momentum": 0.99, "epsilon": 1e-05, "axis": 3, "mode": 0}, "inbound_nodes": [[["convolution2d_38", 0, 0]]], "name": "batchnormalization_38", "class_name": "BatchNormalization"}, {"config": {"pool_size": [3, 3], "border_mode": "same", "name": "averagepooling2d_4", "dim_ordering": "tf", "trainable": false, "strides": [1, 1]}, "inbound_nodes": [[["mixed3", 0, 0]]], "name": "averagepooling2d_4", "class_name": "AveragePooling2D"}, {"config": {"activity_regularizer": null, "border_mode": "same", "bias": true, "nb_filter": 192, "nb_col": 1, "init": "glorot_uniform", "subsample": [1, 1], "activation": "relu", "nb_row": 1, "W_constraint": null, "name": "convolution2d_31", "b_regularizer": null, "dim_ordering": "tf", "W_regularizer": null, "b_constraint": null, "trainable": false}, "inbound_nodes": [[["mixed3", 0, 0]]], "name": "convolution2d_31", "class_name": "Convolution2D"}, {"config": {"activity_regularizer": null, "border_mode": "same", "bias": true, "nb_filter": 192, "nb_col": 1, "init": "glorot_uniform", "subsample": [1, 1], "activation": "relu", "nb_row": 7, "W_constraint": null, "name": "convolution2d_34", "b_regularizer": null, "dim_ordering": "tf", "W_regularizer": null, "b_constraint": null, "trainable": false}, "inbound_nodes": [[["batchnormalization_33", 0, 0]]], "name": "convolution2d_34", "class_name": "Convolution2D"}, {"config": {"activity_regularizer": null, "border_mode": "same", "bias": true, "nb_filter": 192, "nb_col": 7, "init": "glorot_uniform", "subsample": [1, 1], "activation": "relu", "nb_row": 1, "W_constraint": null, "name": "convolution2d_39", "b_regularizer": null, "dim_ordering": "tf", "W_regularizer": null, "b_constraint": null, "trainable": false}, "inbound_nodes": [[["batchnormalization_38", 0, 0]]], "name": "convolution2d_39", "class_name": "Convolution2D"}, {"config": {"activity_regularizer": null, "border_mode": "same", "bias": true, "nb_filter": 192, "nb_col": 1, "init": "glorot_uniform", "subsample": [1, 1], "activation": "relu", "nb_row": 1, "W_constraint": null, "name": "convolution2d_40", "b_regularizer": null, "dim_ordering": "tf", "W_regularizer": null, "b_constraint": null, "trainable": false}, "inbound_nodes": [[["averagepooling2d_4", 0, 0]]], "name": "convolution2d_40", "class_name": "Convolution2D"}, {"config": {"beta_regularizer": null, "gamma_regularizer": null, "name": "batchnormalization_31", "trainable": false, "momentum": 0.99, "epsilon": 1e-05, "axis": 3, "mode": 0}, "inbound_nodes": [[["convolution2d_31", 0, 0]]], "name": "batchnormalization_31", "class_name": "BatchNormalization"}, {"config": {"beta_regularizer": null, "gamma_regularizer": null, "name": "batchnormalization_34", "trainable": false, "momentum": 0.99, "epsilon": 1e-05, "axis": 3, "mode": 0}, "inbound_nodes": [[["convolution2d_34", 0, 0]]], "name": "batchnormalization_34", "class_name": "BatchNormalization"}, {"config": {"beta_regularizer": null, "gamma_regularizer": null, "name": "batchnormalization_39", "trainable": false, "momentum": 0.99, "epsilon": 1e-05, "axis": 3, "mode": 0}, "inbound_nodes": [[["convolution2d_39", 0, 0]]], "name": "batchnormalization_39", "class_name": "BatchNormalization"}, {"config": {"beta_regularizer": null, "gamma_regularizer": null, "name": "batchnormalization_40", "trainable": false, "momentum": 0.99, "epsilon": 1e-05, "axis": 3, "mode": 0}, "inbound_nodes": [[["convolution2d_40", 0, 0]]], "name": "batchnormalization_40", "class_name": "BatchNormalization"}, {"config": {"name": "mixed4", "output_shape": null, "output_mask": null, "output_mask_type": "raw", "arguments": {}, "concat_axis": 3, "mode_type": "raw", "dot_axes": -1, "output_shape_type": "raw", "mode": "concat"}, "inbound_nodes": [[["batchnormalization_31", 0, 0], ["batchnormalization_34", 0, 0], ["batchnormalization_39", 0, 0], ["batchnormalization_40", 0, 0]]], "name": "mixed4", "class_name": "Merge"}, {"config": {"activity_regularizer": null, "border_mode": "same", "bias": true, "nb_filter": 160, "nb_col": 1, "init": "glorot_uniform", "subsample": [1, 1], "activation": "relu", "nb_row": 1, "W_constraint": null, "name": "convolution2d_45", "b_regularizer": null, "dim_ordering": "tf", "W_regularizer": null, "b_constraint": null, "trainable": false}, "inbound_nodes": [[["mixed4", 0, 0]]], "name": "convolution2d_45", "class_name": "Convolution2D"}, {"config": {"beta_regularizer": null, "gamma_regularizer": null, "name": "batchnormalization_45", "trainable": false, "momentum": 0.99, "epsilon": 1e-05, "axis": 3, "mode": 0}, "inbound_nodes": [[["convolution2d_45", 0, 0]]], "name": "batchnormalization_45", "class_name": "BatchNormalization"}, {"config": {"activity_regularizer": null, "border_mode": "same", "bias": true, "nb_filter": 160, "nb_col": 1, "init": "glorot_uniform", "subsample": [1, 1], "activation": "relu", "nb_row": 7, "W_constraint": null, "name": "convolution2d_46", "b_regularizer": null, "dim_ordering": "tf", "W_regularizer": null, "b_constraint": null, "trainable": false}, "inbound_nodes": [[["batchnormalization_45", 0, 0]]], "name": "convolution2d_46", "class_name": "Convolution2D"}, {"config": {"beta_regularizer": null, "gamma_regularizer": null, "name": "batchnormalization_46", "trainable": false, "momentum": 0.99, "epsilon": 1e-05, "axis": 3, "mode": 0}, "inbound_nodes": [[["convolution2d_46", 0, 0]]], "name": "batchnormalization_46", "class_name": "BatchNormalization"}, {"config": {"activity_regularizer": null, "border_mode": "same", "bias": true, "nb_filter": 160, "nb_col": 1, "init": "glorot_uniform", "subsample": [1, 1], "activation": "relu", "nb_row": 1, "W_constraint": null, "name": "convolution2d_42", "b_regularizer": null, "dim_ordering": "tf", "W_regularizer": null, "b_constraint": null, "trainable": false}, "inbound_nodes": [[["mixed4", 0, 0]]], "name": "convolution2d_42", "class_name": "Convolution2D"}, {"config": {"activity_regularizer": null, "border_mode": "same", "bias": true, "nb_filter": 160, "nb_col": 7, "init": "glorot_uniform", "subsample": [1, 1], "activation": "relu", "nb_row": 1, "W_constraint": null, "name": "convolution2d_47", "b_regularizer": null, "dim_ordering": "tf", "W_regularizer": null, "b_constraint": null, "trainable": false}, "inbound_nodes": [[["batchnormalization_46", 0, 0]]], "name": "convolution2d_47", "class_name": "Convolution2D"}, {"config": {"beta_regularizer": null, "gamma_regularizer": null, "name": "batchnormalization_42", "trainable": false, "momentum": 0.99, "epsilon": 1e-05, "axis": 3, "mode": 0}, "inbound_nodes": [[["convolution2d_42", 0, 0]]], "name": "batchnormalization_42", "class_name": "BatchNormalization"}, {"config": {"beta_regularizer": null, "gamma_regularizer": null, "name": "batchnormalization_47", "trainable": false, "momentum": 0.99, "epsilon": 1e-05, "axis": 3, "mode": 0}, "inbound_nodes": [[["convolution2d_47", 0, 0]]], "name": "batchnormalization_47", "class_name": "BatchNormalization"}, {"config": {"activity_regularizer": null, "border_mode": "same", "bias": true, "nb_filter": 160, "nb_col": 7, "init": "glorot_uniform", "subsample": [1, 1], "activation": "relu", "nb_row": 1, "W_constraint": null, "name": "convolution2d_43", "b_regularizer": null, "dim_ordering": "tf", "W_regularizer": null, "b_constraint": null, "trainable": false}, "inbound_nodes": [[["batchnormalization_42", 0, 0]]], "name": "convolution2d_43", "class_name": "Convolution2D"}, {"config": {"activity_regularizer": null, "border_mode": "same", "bias": true, "nb_filter": 160, "nb_col": 1, "init": "glorot_uniform", "subsample": [1, 1], "activation": "relu", "nb_row": 7, "W_constraint": null, "name": "convolution2d_48", "b_regularizer": null, "dim_ordering": "tf", "W_regularizer": null, "b_constraint": null, "trainable": false}, "inbound_nodes": [[["batchnormalization_47", 0, 0]]], "name": "convolution2d_48", "class_name": "Convolution2D"}, {"config": {"beta_regularizer": null, "gamma_regularizer": null, "name": "batchnormalization_43", "trainable": false, "momentum": 0.99, "epsilon": 1e-05, "axis": 3, "mode": 0}, "inbound_nodes": [[["convolution2d_43", 0, 0]]], "name": "batchnormalization_43", "class_name": "BatchNormalization"}, {"config": {"beta_regularizer": null, "gamma_regularizer": null, "name": "batchnormalization_48", "trainable": false, "momentum": 0.99, "epsilon": 1e-05, "axis": 3, "mode": 0}, "inbound_nodes": [[["convolution2d_48", 0, 0]]], "name": "batchnormalization_48", "class_name": "BatchNormalization"}, {"config": {"pool_size": [3, 3], "border_mode": "same", "name": "averagepooling2d_5", "dim_ordering": "tf", "trainable": false, "strides": [1, 1]}, "inbound_nodes": [[["mixed4", 0, 0]]], "name": "averagepooling2d_5", "class_name": "AveragePooling2D"}, {"config": {"activity_regularizer": null, "border_mode": "same", "bias": true, "nb_filter": 192, "nb_col": 1, "init": "glorot_uniform", "subsample": [1, 1], "activation": "relu", "nb_row": 1, "W_constraint": null, "name": "convolution2d_41", "b_regularizer": null, "dim_ordering": "tf", "W_regularizer": null, "b_constraint": null, "trainable": false}, "inbound_nodes": [[["mixed4", 0, 0]]], "name": "convolution2d_41", "class_name": "Convolution2D"}, {"config": {"activity_regularizer": null, "border_mode": "same", "bias": true, "nb_filter": 192, "nb_col": 1, "init": "glorot_uniform", "subsample": [1, 1], "activation": "relu", "nb_row": 7, "W_constraint": null, "name": "convolution2d_44", "b_regularizer": null, "dim_ordering": "tf", "W_regularizer": null, "b_constraint": null, "trainable": false}, "inbound_nodes": [[["batchnormalization_43", 0, 0]]], "name": "convolution2d_44", "class_name": "Convolution2D"}, {"config": {"activity_regularizer": null, "border_mode": "same", "bias": true, "nb_filter": 192, "nb_col": 7, "init": "glorot_uniform", "subsample": [1, 1], "activation": "relu", "nb_row": 1, "W_constraint": null, "name": "convolution2d_49", "b_regularizer": null, "dim_ordering": "tf", "W_regularizer": null, "b_constraint": null, "trainable": false}, "inbound_nodes": [[["batchnormalization_48", 0, 0]]], "name": "convolution2d_49", "class_name": "Convolution2D"}, {"config": {"activity_regularizer": null, "border_mode": "same", "bias": true, "nb_filter": 192, "nb_col": 1, "init": "glorot_uniform", "subsample": [1, 1], "activation": "relu", "nb_row": 1, "W_constraint": null, "name": "convolution2d_50", "b_regularizer": null, "dim_ordering": "tf", "W_regularizer": null, "b_constraint": null, "trainable": false}, "inbound_nodes": [[["averagepooling2d_5", 0, 0]]], "name": "convolution2d_50", "class_name": "Convolution2D"}, {"config": {"beta_regularizer": null, "gamma_regularizer": null, "name": "batchnormalization_41", "trainable": false, "momentum": 0.99, "epsilon": 1e-05, "axis": 3, "mode": 0}, "inbound_nodes": [[["convolution2d_41", 0, 0]]], "name": "batchnormalization_41", "class_name": "BatchNormalization"}, {"config": {"beta_regularizer": null, "gamma_regularizer": null, "name": "batchnormalization_44", "trainable": false, "momentum": 0.99, "epsilon": 1e-05, "axis": 3, "mode": 0}, "inbound_nodes": [[["convolution2d_44", 0, 0]]], "name": "batchnormalization_44", "class_name": "BatchNormalization"}, {"config": {"beta_regularizer": null, "gamma_regularizer": null, "name": "batchnormalization_49", "trainable": false, "momentum": 0.99, "epsilon": 1e-05, "axis": 3, "mode": 0}, "inbound_nodes": [[["convolution2d_49", 0, 0]]], "name": "batchnormalization_49", "class_name": "BatchNormalization"}, {"config": {"beta_regularizer": null, "gamma_regularizer": null, "name": "batchnormalization_50", "trainable": false, "momentum": 0.99, "epsilon": 1e-05, "axis": 3, "mode": 0}, "inbound_nodes": [[["convolution2d_50", 0, 0]]], "name": "batchnormalization_50", "class_name": "BatchNormalization"}, {"config": {"name": "mixed5", "output_shape": null, "output_mask": null, "output_mask_type": "raw", "arguments": {}, "concat_axis": 3, "mode_type": "raw", "dot_axes": -1, "output_shape_type": "raw", "mode": "concat"}, "inbound_nodes": [[["batchnormalization_41", 0, 0], ["batchnormalization_44", 0, 0], ["batchnormalization_49", 0, 0], ["batchnormalization_50", 0, 0]]], "name": "mixed5", "class_name": "Merge"}, {"config": {"activity_regularizer": null, "border_mode": "same", "bias": true, "nb_filter": 160, "nb_col": 1, "init": "glorot_uniform", "subsample": [1, 1], "activation": "relu", "nb_row": 1, "W_constraint": null, "name": "convolution2d_55", "b_regularizer": null, "dim_ordering": "tf", "W_regularizer": null, "b_constraint": null, "trainable": false}, "inbound_nodes": [[["mixed5", 0, 0]]], "name": "convolution2d_55", "class_name": "Convolution2D"}, {"config": {"beta_regularizer": null, "gamma_regularizer": null, "name": "batchnormalization_55", "trainable": false, "momentum": 0.99, "epsilon": 1e-05, "axis": 3, "mode": 0}, "inbound_nodes": [[["convolution2d_55", 0, 0]]], "name": "batchnormalization_55", "class_name": "BatchNormalization"}, {"config": {"activity_regularizer": null, "border_mode": "same", "bias": true, "nb_filter": 160, "nb_col": 1, "init": "glorot_uniform", "subsample": [1, 1], "activation": "relu", "nb_row": 7, "W_constraint": null, "name": "convolution2d_56", "b_regularizer": null, "dim_ordering": "tf", "W_regularizer": null, "b_constraint": null, "trainable": false}, "inbound_nodes": [[["batchnormalization_55", 0, 0]]], "name": "convolution2d_56", "class_name": "Convolution2D"}, {"config": {"beta_regularizer": null, "gamma_regularizer": null, "name": "batchnormalization_56", "trainable": false, "momentum": 0.99, "epsilon": 1e-05, "axis": 3, "mode": 0}, "inbound_nodes": [[["convolution2d_56", 0, 0]]], "name": "batchnormalization_56", "class_name": "BatchNormalization"}, {"config": {"activity_regularizer": null, "border_mode": "same", "bias": true, "nb_filter": 160, "nb_col": 1, "init": "glorot_uniform", "subsample": [1, 1], "activation": "relu", "nb_row": 1, "W_constraint": null, "name": "convolution2d_52", "b_regularizer": null, "dim_ordering": "tf", "W_regularizer": null, "b_constraint": null, "trainable": false}, "inbound_nodes": [[["mixed5", 0, 0]]], "name": "convolution2d_52", "class_name": "Convolution2D"}, {"config": {"activity_regularizer": null, "border_mode": "same", "bias": true, "nb_filter": 160, "nb_col": 7, "init": "glorot_uniform", "subsample": [1, 1], "activation": "relu", "nb_row": 1, "W_constraint": null, "name": "convolution2d_57", "b_regularizer": null, "dim_ordering": "tf", "W_regularizer": null, "b_constraint": null, "trainable": false}, "inbound_nodes": [[["batchnormalization_56", 0, 0]]], "name": "convolution2d_57", "class_name": "Convolution2D"}, {"config": {"beta_regularizer": null, "gamma_regularizer": null, "name": "batchnormalization_52", "trainable": false, "momentum": 0.99, "epsilon": 1e-05, "axis": 3, "mode": 0}, "inbound_nodes": [[["convolution2d_52", 0, 0]]], "name": "batchnormalization_52", "class_name": "BatchNormalization"}, {"config": {"beta_regularizer": null, "gamma_regularizer": null, "name": "batchnormalization_57", "trainable": false, "momentum": 0.99, "epsilon": 1e-05, "axis": 3, "mode": 0}, "inbound_nodes": [[["convolution2d_57", 0, 0]]], "name": "batchnormalization_57", "class_name": "BatchNormalization"}, {"config": {"activity_regularizer": null, "border_mode": "same", "bias": true, "nb_filter": 160, "nb_col": 7, "init": "glorot_uniform", "subsample": [1, 1], "activation": "relu", "nb_row": 1, "W_constraint": null, "name": "convolution2d_53", "b_regularizer": null, "dim_ordering": "tf", "W_regularizer": null, "b_constraint": null, "trainable": false}, "inbound_nodes": [[["batchnormalization_52", 0, 0]]], "name": "convolution2d_53", "class_name": "Convolution2D"}, {"config": {"activity_regularizer": null, "border_mode": "same", "bias": true, "nb_filter": 160, "nb_col": 1, "init": "glorot_uniform", "subsample": [1, 1], "activation": "relu", "nb_row": 7, "W_constraint": null, "name": "convolution2d_58", "b_regularizer": null, "dim_ordering": "tf", "W_regularizer": null, "b_constraint": null, "trainable": false}, "inbound_nodes": [[["batchnormalization_57", 0, 0]]], "name": "convolution2d_58", "class_name": "Convolution2D"}, {"config": {"beta_regularizer": null, "gamma_regularizer": null, "name": "batchnormalization_53", "trainable": false, "momentum": 0.99, "epsilon": 1e-05, "axis": 3, "mode": 0}, "inbound_nodes": [[["convolution2d_53", 0, 0]]], "name": "batchnormalization_53", "class_name": "BatchNormalization"}, {"config": {"beta_regularizer": null, "gamma_regularizer": null, "name": "batchnormalization_58", "trainable": false, "momentum": 0.99, "epsilon": 1e-05, "axis": 3, "mode": 0}, "inbound_nodes": [[["convolution2d_58", 0, 0]]], "name": "batchnormalization_58", "class_name": "BatchNormalization"}, {"config": {"pool_size": [3, 3], "border_mode": "same", "name": "averagepooling2d_6", "dim_ordering": "tf", "trainable": false, "strides": [1, 1]}, "inbound_nodes": [[["mixed5", 0, 0]]], "name": "averagepooling2d_6", "class_name": "AveragePooling2D"}, {"config": {"activity_regularizer": null, "border_mode": "same", "bias": true, "nb_filter": 192, "nb_col": 1, "init": "glorot_uniform", "subsample": [1, 1], "activation": "relu", "nb_row": 1, "W_constraint": null, "name": "convolution2d_51", "b_regularizer": null, "dim_ordering": "tf", "W_regularizer": null, "b_constraint": null, "trainable": false}, "inbound_nodes": [[["mixed5", 0, 0]]], "name": "convolution2d_51", "class_name": "Convolution2D"}, {"config": {"activity_regularizer": null, "border_mode": "same", "bias": true, "nb_filter": 192, "nb_col": 1, "init": "glorot_uniform", "subsample": [1, 1], "activation": "relu", "nb_row": 7, "W_constraint": null, "name": "convolution2d_54", "b_regularizer": null, "dim_ordering": "tf", "W_regularizer": null, "b_constraint": null, "trainable": false}, "inbound_nodes": [[["batchnormalization_53", 0, 0]]], "name": "convolution2d_54", "class_name": "Convolution2D"}, {"config": {"activity_regularizer": null, "border_mode": "same", "bias": true, "nb_filter": 192, "nb_col": 7, "init": "glorot_uniform", "subsample": [1, 1], "activation": "relu", "nb_row": 1, "W_constraint": null, "name": "convolution2d_59", "b_regularizer": null, "dim_ordering": "tf", "W_regularizer": null, "b_constraint": null, "trainable": false}, "inbound_nodes": [[["batchnormalization_58", 0, 0]]], "name": "convolution2d_59", "class_name": "Convolution2D"}, {"config": {"activity_regularizer": null, "border_mode": "same", "bias": true, "nb_filter": 192, "nb_col": 1, "init": "glorot_uniform", "subsample": [1, 1], "activation": "relu", "nb_row": 1, "W_constraint": null, "name": "convolution2d_60", "b_regularizer": null, "dim_ordering": "tf", "W_regularizer": null, "b_constraint": null, "trainable": false}, "inbound_nodes": [[["averagepooling2d_6", 0, 0]]], "name": "convolution2d_60", "class_name": "Convolution2D"}, {"config": {"beta_regularizer": null, "gamma_regularizer": null, "name": "batchnormalization_51", "trainable": false, "momentum": 0.99, "epsilon": 1e-05, "axis": 3, "mode": 0}, "inbound_nodes": [[["convolution2d_51", 0, 0]]], "name": "batchnormalization_51", "class_name": "BatchNormalization"}, {"config": {"beta_regularizer": null, "gamma_regularizer": null, "name": "batchnormalization_54", "trainable": false, "momentum": 0.99, "epsilon": 1e-05, "axis": 3, "mode": 0}, "inbound_nodes": [[["convolution2d_54", 0, 0]]], "name": "batchnormalization_54", "class_name": "BatchNormalization"}, {"config": {"beta_regularizer": null, "gamma_regularizer": null, "name": "batchnormalization_59", "trainable": false, "momentum": 0.99, "epsilon": 1e-05, "axis": 3, "mode": 0}, "inbound_nodes": [[["convolution2d_59", 0, 0]]], "name": "batchnormalization_59", "class_name": "BatchNormalization"}, {"config": {"beta_regularizer": null, "gamma_regularizer": null, "name": "batchnormalization_60", "trainable": false, "momentum": 0.99, "epsilon": 1e-05, "axis": 3, "mode": 0}, "inbound_nodes": [[["convolution2d_60", 0, 0]]], "name": "batchnormalization_60", "class_name": "BatchNormalization"}, {"config": {"name": "mixed6", "output_shape": null, "output_mask": null, "output_mask_type": "raw", "arguments": {}, "concat_axis": 3, "mode_type": "raw", "dot_axes": -1, "output_shape_type": "raw", "mode": "concat"}, "inbound_nodes": [[["batchnormalization_51", 0, 0], ["batchnormalization_54", 0, 0], ["batchnormalization_59", 0, 0], ["batchnormalization_60", 0, 0]]], "name": "mixed6", "class_name": "Merge"}, {"config": {"activity_regularizer": null, "border_mode": "same", "bias": true, "nb_filter": 160, "nb_col": 1, "init": "glorot_uniform", "subsample": [1, 1], "activation": "relu", "nb_row": 1, "W_constraint": null, "name": "convolution2d_65", "b_regularizer": null, "dim_ordering": "tf", "W_regularizer": null, "b_constraint": null, "trainable": false}, "inbound_nodes": [[["mixed6", 0, 0]]], "name": "convolution2d_65", "class_name": "Convolution2D"}, {"config": {"beta_regularizer": null, "gamma_regularizer": null, "name": "batchnormalization_65", "trainable": false, "momentum": 0.99, "epsilon": 1e-05, "axis": 3, "mode": 0}, "inbound_nodes": [[["convolution2d_65", 0, 0]]], "name": "batchnormalization_65", "class_name": "BatchNormalization"}, {"config": {"activity_regularizer": null, "border_mode": "same", "bias": true, "nb_filter": 192, "nb_col": 1, "init": "glorot_uniform", "subsample": [1, 1], "activation": "relu", "nb_row": 7, "W_constraint": null, "name": "convolution2d_66", "b_regularizer": null, "dim_ordering": "tf", "W_regularizer": null, "b_constraint": null, "trainable": false}, "inbound_nodes": [[["batchnormalization_65", 0, 0]]], "name": "convolution2d_66", "class_name": "Convolution2D"}, {"config": {"beta_regularizer": null, "gamma_regularizer": null, "name": "batchnormalization_66", "trainable": false, "momentum": 0.99, "epsilon": 1e-05, "axis": 3, "mode": 0}, "inbound_nodes": [[["convolution2d_66", 0, 0]]], "name": "batchnormalization_66", "class_name": "BatchNormalization"}, {"config": {"activity_regularizer": null, "border_mode": "same", "bias": true, "nb_filter": 192, "nb_col": 1, "init": "glorot_uniform", "subsample": [1, 1], "activation": "relu", "nb_row": 1, "W_constraint": null, "name": "convolution2d_62", "b_regularizer": null, "dim_ordering": "tf", "W_regularizer": null, "b_constraint": null, "trainable": false}, "inbound_nodes": [[["mixed6", 0, 0]]], "name": "convolution2d_62", "class_name": "Convolution2D"}, {"config": {"activity_regularizer": null, "border_mode": "same", "bias": true, "nb_filter": 192, "nb_col": 7, "init": "glorot_uniform", "subsample": [1, 1], "activation": "relu", "nb_row": 1, "W_constraint": null, "name": "convolution2d_67", "b_regularizer": null, "dim_ordering": "tf", "W_regularizer": null, "b_constraint": null, "trainable": false}, "inbound_nodes": [[["batchnormalization_66", 0, 0]]], "name": "convolution2d_67", "class_name": "Convolution2D"}, {"config": {"beta_regularizer": null, "gamma_regularizer": null, "name": "batchnormalization_62", "trainable": false, "momentum": 0.99, "epsilon": 1e-05, "axis": 3, "mode": 0}, "inbound_nodes": [[["convolution2d_62", 0, 0]]], "name": "batchnormalization_62", "class_name": "BatchNormalization"}, {"config": {"beta_regularizer": null, "gamma_regularizer": null, "name": "batchnormalization_67", "trainable": false, "momentum": 0.99, "epsilon": 1e-05, "axis": 3, "mode": 0}, "inbound_nodes": [[["convolution2d_67", 0, 0]]], "name": "batchnormalization_67", "class_name": "BatchNormalization"}, {"config": {"activity_regularizer": null, "border_mode": "same", "bias": true, "nb_filter": 192, "nb_col": 7, "init": "glorot_uniform", "subsample": [1, 1], "activation": "relu", "nb_row": 1, "W_constraint": null, "name": "convolution2d_63", "b_regularizer": null, "dim_ordering": "tf", "W_regularizer": null, "b_constraint": null, "trainable": false}, "inbound_nodes": [[["batchnormalization_62", 0, 0]]], "name": "convolution2d_63", "class_name": "Convolution2D"}, {"config": {"activity_regularizer": null, "border_mode": "same", "bias": true, "nb_filter": 192, "nb_col": 1, "init": "glorot_uniform", "subsample": [1, 1], "activation": "relu", "nb_row": 7, "W_constraint": null, "name": "convolution2d_68", "b_regularizer": null, "dim_ordering": "tf", "W_regularizer": null, "b_constraint": null, "trainable": false}, "inbound_nodes": [[["batchnormalization_67", 0, 0]]], "name": "convolution2d_68", "class_name": "Convolution2D"}, {"config": {"beta_regularizer": null, "gamma_regularizer": null, "name": "batchnormalization_63", "trainable": false, "momentum": 0.99, "epsilon": 1e-05, "axis": 3, "mode": 0}, "inbound_nodes": [[["convolution2d_63", 0, 0]]], "name": "batchnormalization_63", "class_name": "BatchNormalization"}, {"config": {"beta_regularizer": null, "gamma_regularizer": null, "name": "batchnormalization_68", "trainable": false, "momentum": 0.99, "epsilon": 1e-05, "axis": 3, "mode": 0}, "inbound_nodes": [[["convolution2d_68", 0, 0]]], "name": "batchnormalization_68", "class_name": "BatchNormalization"}, {"config": {"pool_size": [3, 3], "border_mode": "same", "name": "averagepooling2d_7", "dim_ordering": "tf", "trainable": false, "strides": [1, 1]}, "inbound_nodes": [[["mixed6", 0, 0]]], "name": "averagepooling2d_7", "class_name": "AveragePooling2D"}, {"config": {"activity_regularizer": null, "border_mode": "same", "bias": true, "nb_filter": 192, "nb_col": 1, "init": "glorot_uniform", "subsample": [1, 1], "activation": "relu", "nb_row": 1, "W_constraint": null, "name": "convolution2d_61", "b_regularizer": null, "dim_ordering": "tf", "W_regularizer": null, "b_constraint": null, "trainable": false}, "inbound_nodes": [[["mixed6", 0, 0]]], "name": "convolution2d_61", "class_name": "Convolution2D"}, {"config": {"activity_regularizer": null, "border_mode": "same", "bias": true, "nb_filter": 192, "nb_col": 1, "init": "glorot_uniform", "subsample": [1, 1], "activation": "relu", "nb_row": 7, "W_constraint": null, "name": "convolution2d_64", "b_regularizer": null, "dim_ordering": "tf", "W_regularizer": null, "b_constraint": null, "trainable": false}, "inbound_nodes": [[["batchnormalization_63", 0, 0]]], "name": "convolution2d_64", "class_name": "Convolution2D"}, {"config": {"activity_regularizer": null, "border_mode": "same", "bias": true, "nb_filter": 192, "nb_col": 7, "init": "glorot_uniform", "subsample": [1, 1], "activation": "relu", "nb_row": 1, "W_constraint": null, "name": "convolution2d_69", "b_regularizer": null, "dim_ordering": "tf", "W_regularizer": null, "b_constraint": null, "trainable": false}, "inbound_nodes": [[["batchnormalization_68", 0, 0]]], "name": "convolution2d_69", "class_name": "Convolution2D"}, {"config": {"activity_regularizer": null, "border_mode": "same", "bias": true, "nb_filter": 192, "nb_col": 1, "init": "glorot_uniform", "subsample": [1, 1], "activation": "relu", "nb_row": 1, "W_constraint": null, "name": "convolution2d_70", "b_regularizer": null, "dim_ordering": "tf", "W_regularizer": null, "b_constraint": null, "trainable": false}, "inbound_nodes": [[["averagepooling2d_7", 0, 0]]], "name": "convolution2d_70", "class_name": "Convolution2D"}, {"config": {"beta_regularizer": null, "gamma_regularizer": null, "name": "batchnormalization_61", "trainable": false, "momentum": 0.99, "epsilon": 1e-05, "axis": 3, "mode": 0}, "inbound_nodes": [[["convolution2d_61", 0, 0]]], "name": "batchnormalization_61", "class_name": "BatchNormalization"}, {"config": {"beta_regularizer": null, "gamma_regularizer": null, "name": "batchnormalization_64", "trainable": false, "momentum": 0.99, "epsilon": 1e-05, "axis": 3, "mode": 0}, "inbound_nodes": [[["convolution2d_64", 0, 0]]], "name": "batchnormalization_64", "class_name": "BatchNormalization"}, {"config": {"beta_regularizer": null, "gamma_regularizer": null, "name": "batchnormalization_69", "trainable": false, "momentum": 0.99, "epsilon": 1e-05, "axis": 3, "mode": 0}, "inbound_nodes": [[["convolution2d_69", 0, 0]]], "name": "batchnormalization_69", "class_name": "BatchNormalization"}, {"config": {"beta_regularizer": null, "gamma_regularizer": null, "name": "batchnormalization_70", "trainable": false, "momentum": 0.99, "epsilon": 1e-05, "axis": 3, "mode": 0}, "inbound_nodes": [[["convolution2d_70", 0, 0]]], "name": "batchnormalization_70", "class_name": "BatchNormalization"}, {"config": {"name": "mixed7", "output_shape": null, "output_mask": null, "output_mask_type": "raw", "arguments": {}, "concat_axis": 3, "mode_type": "raw", "dot_axes": -1, "output_shape_type": "raw", "mode": "concat"}, "inbound_nodes": [[["batchnormalization_61", 0, 0], ["batchnormalization_64", 0, 0], ["batchnormalization_69", 0, 0], ["batchnormalization_70", 0, 0]]], "name": "mixed7", "class_name": "Merge"}, {"config": {"activity_regularizer": null, "border_mode": "same", "bias": true, "nb_filter": 192, "nb_col": 1, "init": "glorot_uniform", "subsample": [1, 1], "activation": "relu", "nb_row": 1, "W_constraint": null, "name": "convolution2d_73", "b_regularizer": null, "dim_ordering": "tf", "W_regularizer": null, "b_constraint": null, "trainable": false}, "inbound_nodes": [[["mixed7", 0, 0]]], "name": "convolution2d_73", "class_name": "Convolution2D"}, {"config": {"beta_regularizer": null, "gamma_regularizer": null, "name": "batchnormalization_73", "trainable": false, "momentum": 0.99, "epsilon": 1e-05, "axis": 3, "mode": 0}, "inbound_nodes": [[["convolution2d_73", 0, 0]]], "name": "batchnormalization_73", "class_name": "BatchNormalization"}, {"config": {"activity_regularizer": null, "border_mode": "same", "bias": true, "nb_filter": 192, "nb_col": 7, "init": "glorot_uniform", "subsample": [1, 1], "activation": "relu", "nb_row": 1, "W_constraint": null, "name": "convolution2d_74", "b_regularizer": null, "dim_ordering": "tf", "W_regularizer": null, "b_constraint": null, "trainable": false}, "inbound_nodes": [[["batchnormalization_73", 0, 0]]], "name": "convolution2d_74", "class_name": "Convolution2D"}, {"config": {"beta_regularizer": null, "gamma_regularizer": null, "name": "batchnormalization_74", "trainable": false, "momentum": 0.99, "epsilon": 1e-05, "axis": 3, "mode": 0}, "inbound_nodes": [[["convolution2d_74", 0, 0]]], "name": "batchnormalization_74", "class_name": "BatchNormalization"}, {"config": {"activity_regularizer": null, "border_mode": "same", "bias": true, "nb_filter": 192, "nb_col": 1, "init": "glorot_uniform", "subsample": [1, 1], "activation": "relu", "nb_row": 1, "W_constraint": null, "name": "convolution2d_71", "b_regularizer": null, "dim_ordering": "tf", "W_regularizer": null, "b_constraint": null, "trainable": false}, "inbound_nodes": [[["mixed7", 0, 0]]], "name": "convolution2d_71", "class_name": "Convolution2D"}, {"config": {"activity_regularizer": null, "border_mode": "same", "bias": true, "nb_filter": 192, "nb_col": 1, "init": "glorot_uniform", "subsample": [1, 1], "activation": "relu", "nb_row": 7, "W_constraint": null, "name": "convolution2d_75", "b_regularizer": null, "dim_ordering": "tf", "W_regularizer": null, "b_constraint": null, "trainable": false}, "inbound_nodes": [[["batchnormalization_74", 0, 0]]], "name": "convolution2d_75", "class_name": "Convolution2D"}, {"config": {"beta_regularizer": null, "gamma_regularizer": null, "name": "batchnormalization_71", "trainable": false, "momentum": 0.99, "epsilon": 1e-05, "axis": 3, "mode": 0}, "inbound_nodes": [[["convolution2d_71", 0, 0]]], "name": "batchnormalization_71", "class_name": "BatchNormalization"}, {"config": {"beta_regularizer": null, "gamma_regularizer": null, "name": "batchnormalization_75", "trainable": false, "momentum": 0.99, "epsilon": 1e-05, "axis": 3, "mode": 0}, "inbound_nodes": [[["convolution2d_75", 0, 0]]], "name": "batchnormalization_75", "class_name": "BatchNormalization"}, {"config": {"activity_regularizer": null, "border_mode": "valid", "bias": true, "nb_filter": 320, "nb_col": 3, "init": "glorot_uniform", "subsample": [2, 2], "activation": "relu", "nb_row": 3, "W_constraint": null, "name": "convolution2d_72", "b_regularizer": null, "dim_ordering": "tf", "W_regularizer": null, "b_constraint": null, "trainable": false}, "inbound_nodes": [[["batchnormalization_71", 0, 0]]], "name": "convolution2d_72", "class_name": "Convolution2D"}, {"config": {"activity_regularizer": null, "border_mode": "valid", "bias": true, "nb_filter": 192, "nb_col": 3, "init": "glorot_uniform", "subsample": [2, 2], "activation": "relu", "nb_row": 3, "W_constraint": null, "name": "convolution2d_76", "b_regularizer": null, "dim_ordering": "tf", "W_regularizer": null, "b_constraint": null, "trainable": false}, "inbound_nodes": [[["batchnormalization_75", 0, 0]]], "name": "convolution2d_76", "class_name": "Convolution2D"}, {"config": {"beta_regularizer": null, "gamma_regularizer": null, "name": "batchnormalization_72", "trainable": false, "momentum": 0.99, "epsilon": 1e-05, "axis": 3, "mode": 0}, "inbound_nodes": [[["convolution2d_72", 0, 0]]], "name": "batchnormalization_72", "class_name": "BatchNormalization"}, {"config": {"beta_regularizer": null, "gamma_regularizer": null, "name": "batchnormalization_76", "trainable": false, "momentum": 0.99, "epsilon": 1e-05, "axis": 3, "mode": 0}, "inbound_nodes": [[["convolution2d_76", 0, 0]]], "name": "batchnormalization_76", "class_name": "BatchNormalization"}, {"config": {"pool_size": [3, 3], "border_mode": "valid", "name": "averagepooling2d_8", "dim_ordering": "tf", "trainable": false, "strides": [2, 2]}, "inbound_nodes": [[["mixed7", 0, 0]]], "name": "averagepooling2d_8", "class_name": "AveragePooling2D"}, {"config": {"name": "mixed8", "output_shape": null, "output_mask": null, "output_mask_type": "raw", "arguments": {}, "concat_axis": 3, "mode_type": "raw", "dot_axes": -1, "output_shape_type": "raw", "mode": "concat"}, "inbound_nodes": [[["batchnormalization_72", 0, 0], ["batchnormalization_76", 0, 0], ["averagepooling2d_8", 0, 0]]], "name": "mixed8", "class_name": "Merge"}, {"config": {"activity_regularizer": null, "border_mode": "same", "bias": true, "nb_filter": 448, "nb_col": 1, "init": "glorot_uniform", "subsample": [1, 1], "activation": "relu", "nb_row": 1, "W_constraint": null, "name": "convolution2d_81", "b_regularizer": null, "dim_ordering": "tf", "W_regularizer": null, "b_constraint": null, "trainable": false}, "inbound_nodes": [[["mixed8", 0, 0]]], "name": "convolution2d_81", "class_name": "Convolution2D"}, {"config": {"beta_regularizer": null, "gamma_regularizer": null, "name": "batchnormalization_81", "trainable": false, "momentum": 0.99, "epsilon": 1e-05, "axis": 3, "mode": 0}, "inbound_nodes": [[["convolution2d_81", 0, 0]]], "name": "batchnormalization_81", "class_name": "BatchNormalization"}, {"config": {"activity_regularizer": null, "border_mode": "same", "bias": true, "nb_filter": 384, "nb_col": 1, "init": "glorot_uniform", "subsample": [1, 1], "activation": "relu", "nb_row": 1, "W_constraint": null, "name": "convolution2d_78", "b_regularizer": null, "dim_ordering": "tf", "W_regularizer": null, "b_constraint": null, "trainable": false}, "inbound_nodes": [[["mixed8", 0, 0]]], "name": "convolution2d_78", "class_name": "Convolution2D"}, {"config": {"activity_regularizer": null, "border_mode": "same", "bias": true, "nb_filter": 384, "nb_col": 3, "init": "glorot_uniform", "subsample": [1, 1], "activation": "relu", "nb_row": 3, "W_constraint": null, "name": "convolution2d_82", "b_regularizer": null, "dim_ordering": "tf", "W_regularizer": null, "b_constraint": null, "trainable": false}, "inbound_nodes": [[["batchnormalization_81", 0, 0]]], "name": "convolution2d_82", "class_name": "Convolution2D"}, {"config": {"beta_regularizer": null, "gamma_regularizer": null, "name": "batchnormalization_78", "trainable": false, "momentum": 0.99, "epsilon": 1e-05, "axis": 3, "mode": 0}, "inbound_nodes": [[["convolution2d_78", 0, 0]]], "name": "batchnormalization_78", "class_name": "BatchNormalization"}, {"config": {"beta_regularizer": null, "gamma_regularizer": null, "name": "batchnormalization_82", "trainable": false, "momentum": 0.99, "epsilon": 1e-05, "axis": 3, "mode": 0}, "inbound_nodes": [[["convolution2d_82", 0, 0]]], "name": "batchnormalization_82", "class_name": "BatchNormalization"}, {"config": {"activity_regularizer": null, "border_mode": "same", "bias": true, "nb_filter": 384, "nb_col": 3, "init": "glorot_uniform", "subsample": [1, 1], "activation": "relu", "nb_row": 1, "W_constraint": null, "name": "convolution2d_79", "b_regularizer": null, "dim_ordering": "tf", "W_regularizer": null, "b_constraint": null, "trainable": false}, "inbound_nodes": [[["batchnormalization_78", 0, 0]]], "name": "convolution2d_79", "class_name": "Convolution2D"}, {"config": {"activity_regularizer": null, "border_mode": "same", "bias": true, "nb_filter": 384, "nb_col": 1, "init": "glorot_uniform", "subsample": [1, 1], "activation": "relu", "nb_row": 3, "W_constraint": null, "name": "convolution2d_80", "b_regularizer": null, "dim_ordering": "tf", "W_regularizer": null, "b_constraint": null, "trainable": false}, "inbound_nodes": [[["batchnormalization_78", 0, 0]]], "name": "convolution2d_80", "class_name": "Convolution2D"}, {"config": {"activity_regularizer": null, "border_mode": "same", "bias": true, "nb_filter": 384, "nb_col": 3, "init": "glorot_uniform", "subsample": [1, 1], "activation": "relu", "nb_row": 1, "W_constraint": null, "name": "convolution2d_83", "b_regularizer": null, "dim_ordering": "tf", "W_regularizer": null, "b_constraint": null, "trainable": false}, "inbound_nodes": [[["batchnormalization_82", 0, 0]]], "name": "convolution2d_83", "class_name": "Convolution2D"}, {"config": {"activity_regularizer": null, "border_mode": "same", "bias": true, "nb_filter": 384, "nb_col": 1, "init": "glorot_uniform", "subsample": [1, 1], "activation": "relu", "nb_row": 3, "W_constraint": null, "name": "convolution2d_84", "b_regularizer": null, "dim_ordering": "tf", "W_regularizer": null, "b_constraint": null, "trainable": false}, "inbound_nodes": [[["batchnormalization_82", 0, 0]]], "name": "convolution2d_84", "class_name": "Convolution2D"}, {"config": {"pool_size": [3, 3], "border_mode": "same", "name": "averagepooling2d_9", "dim_ordering": "tf", "trainable": false, "strides": [1, 1]}, "inbound_nodes": [[["mixed8", 0, 0]]], "name": "averagepooling2d_9", "class_name": "AveragePooling2D"}, {"config": {"activity_regularizer": null, "border_mode": "same", "bias": true, "nb_filter": 320, "nb_col": 1, "init": "glorot_uniform", "subsample": [1, 1], "activation": "relu", "nb_row": 1, "W_constraint": null, "name": "convolution2d_77", "b_regularizer": null, "dim_ordering": "tf", "W_regularizer": null, "b_constraint": null, "trainable": false}, "inbound_nodes": [[["mixed8", 0, 0]]], "name": "convolution2d_77", "class_name": "Convolution2D"}, {"config": {"beta_regularizer": null, "gamma_regularizer": null, "name": "batchnormalization_79", "trainable": false, "momentum": 0.99, "epsilon": 1e-05, "axis": 3, "mode": 0}, "inbound_nodes": [[["convolution2d_79", 0, 0]]], "name": "batchnormalization_79", "class_name": "BatchNormalization"}, {"config": {"beta_regularizer": null, "gamma_regularizer": null, "name": "batchnormalization_80", "trainable": false, "momentum": 0.99, "epsilon": 1e-05, "axis": 3, "mode": 0}, "inbound_nodes": [[["convolution2d_80", 0, 0]]], "name": "batchnormalization_80", "class_name": "BatchNormalization"}, {"config": {"beta_regularizer": null, "gamma_regularizer": null, "name": "batchnormalization_83", "trainable": false, "momentum": 0.99, "epsilon": 1e-05, "axis": 3, "mode": 0}, "inbound_nodes": [[["convolution2d_83", 0, 0]]], "name": "batchnormalization_83", "class_name": "BatchNormalization"}, {"config": {"beta_regularizer": null, "gamma_regularizer": null, "name": "batchnormalization_84", "trainable": false, "momentum": 0.99, "epsilon": 1e-05, "axis": 3, "mode": 0}, "inbound_nodes": [[["convolution2d_84", 0, 0]]], "name": "batchnormalization_84", "class_name": "BatchNormalization"}, {"config": {"activity_regularizer": null, "border_mode": "same", "bias": true, "nb_filter": 192, "nb_col": 1, "init": "glorot_uniform", "subsample": [1, 1], "activation": "relu", "nb_row": 1, "W_constraint": null, "name": "convolution2d_85", "b_regularizer": null, "dim_ordering": "tf", "W_regularizer": null, "b_constraint": null, "trainable": false}, "inbound_nodes": [[["averagepooling2d_9", 0, 0]]], "name": "convolution2d_85", "class_name": "Convolution2D"}, {"config": {"beta_regularizer": null, "gamma_regularizer": null, "name": "batchnormalization_77", "trainable": false, "momentum": 0.99, "epsilon": 1e-05, "axis": 3, "mode": 0}, "inbound_nodes": [[["convolution2d_77", 0, 0]]], "name": "batchnormalization_77", "class_name": "BatchNormalization"}, {"config": {"name": "mixed9_0", "output_shape": null, "output_mask": null, "output_mask_type": "raw", "arguments": {}, "concat_axis": 3, "mode_type": "raw", "dot_axes": -1, "output_shape_type": "raw", "mode": "concat"}, "inbound_nodes": [[["batchnormalization_79", 0, 0], ["batchnormalization_80", 0, 0]]], "name": "mixed9_0", "class_name": "Merge"}, {"config": {"name": "merge_1", "output_shape": null, "output_mask": null, "output_mask_type": "raw", "arguments": {}, "concat_axis": 3, "mode_type": "raw", "dot_axes": -1, "output_shape_type": "raw", "mode": "concat"}, "inbound_nodes": [[["batchnormalization_83", 0, 0], ["batchnormalization_84", 0, 0]]], "name": "merge_1", "class_name": "Merge"}, {"config": {"beta_regularizer": null, "gamma_regularizer": null, "name": "batchnormalization_85", "trainable": false, "momentum": 0.99, "epsilon": 1e-05, "axis": 3, "mode": 0}, "inbound_nodes": [[["convolution2d_85", 0, 0]]], "name": "batchnormalization_85", "class_name": "BatchNormalization"}, {"config": {"name": "mixed9", "output_shape": null, "output_mask": null, "output_mask_type": "raw", "arguments": {}, "concat_axis": 3, "mode_type": "raw", "dot_axes": -1, "output_shape_type": "raw", "mode": "concat"}, "inbound_nodes": [[["batchnormalization_77", 0, 0], ["mixed9_0", 0, 0], ["merge_1", 0, 0], ["batchnormalization_85", 0, 0]]], "name": "mixed9", "class_name": "Merge"}, {"config": {"activity_regularizer": null, "border_mode": "same", "bias": true, "nb_filter": 448, "nb_col": 1, "init": "glorot_uniform", "subsample": [1, 1], "activation": "relu", "nb_row": 1, "W_constraint": null, "name": "convolution2d_90", "b_regularizer": null, "dim_ordering": "tf", "W_regularizer": null, "b_constraint": null, "trainable": false}, "inbound_nodes": [[["mixed9", 0, 0]]], "name": "convolution2d_90", "class_name": "Convolution2D"}, {"config": {"beta_regularizer": null, "gamma_regularizer": null, "name": "batchnormalization_90", "trainable": false, "momentum": 0.99, "epsilon": 1e-05, "axis": 3, "mode": 0}, "inbound_nodes": [[["convolution2d_90", 0, 0]]], "name": "batchnormalization_90", "class_name": "BatchNormalization"}, {"config": {"activity_regularizer": null, "border_mode": "same", "bias": true, "nb_filter": 384, "nb_col": 1, "init": "glorot_uniform", "subsample": [1, 1], "activation": "relu", "nb_row": 1, "W_constraint": null, "name": "convolution2d_87", "b_regularizer": null, "dim_ordering": "tf", "W_regularizer": null, "b_constraint": null, "trainable": false}, "inbound_nodes": [[["mixed9", 0, 0]]], "name": "convolution2d_87", "class_name": "Convolution2D"}, {"config": {"activity_regularizer": null, "border_mode": "same", "bias": true, "nb_filter": 384, "nb_col": 3, "init": "glorot_uniform", "subsample": [1, 1], "activation": "relu", "nb_row": 3, "W_constraint": null, "name": "convolution2d_91", "b_regularizer": null, "dim_ordering": "tf", "W_regularizer": null, "b_constraint": null, "trainable": false}, "inbound_nodes": [[["batchnormalization_90", 0, 0]]], "name": "convolution2d_91", "class_name": "Convolution2D"}, {"config": {"beta_regularizer": null, "gamma_regularizer": null, "name": "batchnormalization_87", "trainable": false, "momentum": 0.99, "epsilon": 1e-05, "axis": 3, "mode": 0}, "inbound_nodes": [[["convolution2d_87", 0, 0]]], "name": "batchnormalization_87", "class_name": "BatchNormalization"}, {"config": {"beta_regularizer": null, "gamma_regularizer": null, "name": "batchnormalization_91", "trainable": false, "momentum": 0.99, "epsilon": 1e-05, "axis": 3, "mode": 0}, "inbound_nodes": [[["convolution2d_91", 0, 0]]], "name": "batchnormalization_91", "class_name": "BatchNormalization"}, {"config": {"activity_regularizer": null, "border_mode": "same", "bias": true, "nb_filter": 384, "nb_col": 3, "init": "glorot_uniform", "subsample": [1, 1], "activation": "relu", "nb_row": 1, "W_constraint": null, "name": "convolution2d_88", "b_regularizer": null, "dim_ordering": "tf", "W_regularizer": null, "b_constraint": null, "trainable": false}, "inbound_nodes": [[["batchnormalization_87", 0, 0]]], "name": "convolution2d_88", "class_name": "Convolution2D"}, {"config": {"activity_regularizer": null, "border_mode": "same", "bias": true, "nb_filter": 384, "nb_col": 1, "init": "glorot_uniform", "subsample": [1, 1], "activation": "relu", "nb_row": 3, "W_constraint": null, "name": "convolution2d_89", "b_regularizer": null, "dim_ordering": "tf", "W_regularizer": null, "b_constraint": null, "trainable": false}, "inbound_nodes": [[["batchnormalization_87", 0, 0]]], "name": "convolution2d_89", "class_name": "Convolution2D"}, {"config": {"activity_regularizer": null, "border_mode": "same", "bias": true, "nb_filter": 384, "nb_col": 3, "init": "glorot_uniform", "subsample": [1, 1], "activation": "relu", "nb_row": 1, "W_constraint": null, "name": "convolution2d_92", "b_regularizer": null, "dim_ordering": "tf", "W_regularizer": null, "b_constraint": null, "trainable": false}, "inbound_nodes": [[["batchnormalization_91", 0, 0]]], "name": "convolution2d_92", "class_name": "Convolution2D"}, {"config": {"activity_regularizer": null, "border_mode": "same", "bias": true, "nb_filter": 384, "nb_col": 1, "init": "glorot_uniform", "subsample": [1, 1], "activation": "relu", "nb_row": 3, "W_constraint": null, "name": "convolution2d_93", "b_regularizer": null, "dim_ordering": "tf", "W_regularizer": null, "b_constraint": null, "trainable": false}, "inbound_nodes": [[["batchnormalization_91", 0, 0]]], "name": "convolution2d_93", "class_name": "Convolution2D"}, {"config": {"pool_size": [3, 3], "border_mode": "same", "name": "averagepooling2d_10", "dim_ordering": "tf", "trainable": false, "strides": [1, 1]}, "inbound_nodes": [[["mixed9", 0, 0]]], "name": "averagepooling2d_10", "class_name": "AveragePooling2D"}, {"config": {"activity_regularizer": null, "border_mode": "same", "bias": true, "nb_filter": 320, "nb_col": 1, "init": "glorot_uniform", "subsample": [1, 1], "activation": "relu", "nb_row": 1, "W_constraint": null, "name": "convolution2d_86", "b_regularizer": null, "dim_ordering": "tf", "W_regularizer": null, "b_constraint": null, "trainable": false}, "inbound_nodes": [[["mixed9", 0, 0]]], "name": "convolution2d_86", "class_name": "Convolution2D"}, {"config": {"beta_regularizer": null, "gamma_regularizer": null, "name": "batchnormalization_88", "trainable": false, "momentum": 0.99, "epsilon": 1e-05, "axis": 3, "mode": 0}, "inbound_nodes": [[["convolution2d_88", 0, 0]]], "name": "batchnormalization_88", "class_name": "BatchNormalization"}, {"config": {"beta_regularizer": null, "gamma_regularizer": null, "name": "batchnormalization_89", "trainable": false, "momentum": 0.99, "epsilon": 1e-05, "axis": 3, "mode": 0}, "inbound_nodes": [[["convolution2d_89", 0, 0]]], "name": "batchnormalization_89", "class_name": "BatchNormalization"}, {"config": {"beta_regularizer": null, "gamma_regularizer": null, "name": "batchnormalization_92", "trainable": false, "momentum": 0.99, "epsilon": 1e-05, "axis": 3, "mode": 0}, "inbound_nodes": [[["convolution2d_92", 0, 0]]], "name": "batchnormalization_92", "class_name": "BatchNormalization"}, {"config": {"beta_regularizer": null, "gamma_regularizer": null, "name": "batchnormalization_93", "trainable": false, "momentum": 0.99, "epsilon": 1e-05, "axis": 3, "mode": 0}, "inbound_nodes": [[["convolution2d_93", 0, 0]]], "name": "batchnormalization_93", "class_name": "BatchNormalization"}, {"config": {"activity_regularizer": null, "border_mode": "same", "bias": true, "nb_filter": 192, "nb_col": 1, "init": "glorot_uniform", "subsample": [1, 1], "activation": "relu", "nb_row": 1, "W_constraint": null, "name": "convolution2d_94", "b_regularizer": null, "dim_ordering": "tf", "W_regularizer": null, "b_constraint": null, "trainable": false}, "inbound_nodes": [[["averagepooling2d_10", 0, 0]]], "name": "convolution2d_94", "class_name": "Convolution2D"}, {"config": {"beta_regularizer": null, "gamma_regularizer": null, "name": "batchnormalization_86", "trainable": false, "momentum": 0.99, "epsilon": 1e-05, "axis": 3, "mode": 0}, "inbound_nodes": [[["convolution2d_86", 0, 0]]], "name": "batchnormalization_86", "class_name": "BatchNormalization"}, {"config": {"name": "mixed9_1", "output_shape": null, "output_mask": null, "output_mask_type": "raw", "arguments": {}, "concat_axis": 3, "mode_type": "raw", "dot_axes": -1, "output_shape_type": "raw", "mode": "concat"}, "inbound_nodes": [[["batchnormalization_88", 0, 0], ["batchnormalization_89", 0, 0]]], "name": "mixed9_1", "class_name": "Merge"}, {"config": {"name": "merge_2", "output_shape": null, "output_mask": null, "output_mask_type": "raw", "arguments": {}, "concat_axis": 3, "mode_type": "raw", "dot_axes": -1, "output_shape_type": "raw", "mode": "concat"}, "inbound_nodes": [[["batchnormalization_92", 0, 0], ["batchnormalization_93", 0, 0]]], "name": "merge_2", "class_name": "Merge"}, {"config": {"beta_regularizer": null, "gamma_regularizer": null, "name": "batchnormalization_94", "trainable": false, "momentum": 0.99, "epsilon": 1e-05, "axis": 3, "mode": 0}, "inbound_nodes": [[["convolution2d_94", 0, 0]]], "name": "batchnormalization_94", "class_name": "BatchNormalization"}, {"config": {"name": "mixed10", "output_shape": null, "output_mask": null, "output_mask_type": "raw", "arguments": {}, "concat_axis": 3, "mode_type": "raw", "dot_axes": -1, "output_shape_type": "raw", "mode": "concat"}, "inbound_nodes": [[["batchnormalization_86", 0, 0], ["mixed9_1", 0, 0], ["merge_2", 0, 0], ["batchnormalization_94", 0, 0]]], "name": "mixed10", "class_name": "Merge"}, {"config": {"dim_ordering": "tf", "trainable": true, "name": "globalaveragepooling2d_1"}, "inbound_nodes": [[["mixed10", 0, 0]]], "name": "globalaveragepooling2d_1", "class_name": "GlobalAveragePooling2D"}, {"config": {"activity_regularizer": null, "output_dim": 1024, "bias": true, "b_regularizer": null, "init": "glorot_uniform", "b_constraint": null, "activation": "relu", "W_constraint": null, "name": "dense_1", "trainable": true, "W_regularizer": null, "input_dim": null}, "inbound_nodes": [[["globalaveragepooling2d_1", 0, 0]]], "name": "dense_1", "class_name": "Dense"}, {"config": {"activity_regularizer": null, "output_dim": 1, "bias": true, "b_regularizer": null, "init": "glorot_uniform", "b_constraint": null, "activation": "linear", "W_constraint": null, "name": "dense_2", "trainable": true, "W_regularizer": null, "input_dim": null}, "inbound_nodes": [[["dense_1", 0, 0]]], "name": "dense_2", "class_name": "Dense"}], "input_layers": [["input_1", 0, 0]], "output_layers": [["dense_2", 0, 0]], "name": "model_2"}, "keras_version": "1.1.2", "class_name": "Model"}